other methods/models/MLP_random_seed_456/gut_16s/model_Sex.pth (torch, 171197 bytes, 28 tensors)

genenet_fcs.0.weight f4 [64, 96]
00000000: 9588 b6ba 789f cbbc a4e7 443c 739e 933c
00000010: c0fa b93b cd3a f23c eb63 d63c d401 ffbc
00000020: af86 543c 2724 22bc 1fc0 743b 6247 2b3d
00000030: 9fb6 8e3c 9d41 23bd 0260 34bd 770a fbbb
00000040: 6622 ec39 9e18 0dbd 9e43 1f3d eb51 43bc
00000050: 3d6d 05bc c35b 413c 5192 883c 106a 1ebc
00000060: c690 7cbc 6ca9 1b3c b2e5 1bbd 822c 3d3c
00000070: 85fc 193d 1e2e 3ebd a12b 5bbd 9dcf 773d
00000080: d844 60bc 6161 6d3d 8333 1bbd d66a 953c
00000090: c7ce 06bd 5da8 943c d1f9 e03b e62c 95bd
000000a0: 8bfd 1b3c d6a8 8dbc cbfc bdbd 3337 a83c
000000b0: 8cd1 643c 9aa5 d73d e73e 8ebd 865d 363d
000000c0: 4d9a 87bc 80cc 153c 1e43 3abc 9d16 383c
000000d0: cc8a f2bc bafa 843c c8d7 e0bc 14d8 a53c
000000e0: af41 553d 0442 cb3a 21a2 ab3d 925f 70bd
000000f0: 7028 00bd df98 edbb a969 f6bd e769 363d
00000100: 3b93 4abd 927a d7bd 2bec 1dbd 2d62 19bd
00000110: da5d 63bc 48b3 e8bc cd22 bcbc 6dbc a7bb
00000120: 8cff 6dbc 57d8 98bc 9037 68bd df14 80bc
00000130: 295b e2bd 877b 843b f998 073c 102e e8bc
00000140: 1003 113d e51b c7bc 2f1a 8bbb 89c6 643c
00000150: 7188 543c d014 e83b 33cb 183d caf5 05bc
00000160: 3427 b7bc 86e6 063d dbe0 0fbd e2de d9ba
00000170: be41 173d 06d9 783d 609b 11bc 6299 443c
00000180: d689 cf3c 3fa5 27bd d5b6 ecb9 91f1 a03c
00000190: 4de5 bc3c 06b1 793d fa56 023d 4f57 693c
000001a0: e0e9 713d 16a3 17bc ba8a 833c 79b9 b63c
000001b0: 53a5 61bc 6d21 93bb c8c4 02bc b40c 1abd
000001c0: 3d9e 753a 5ff4 c33b d85a f03c 4d2d 663d
000001d0: 6d8f 3c3c 3a2b 5cbc 6a25 fa3b 6e05 2e3c
000001e0: 423a 3dbd 474b 4cbd 8a69 07bd 642d 52bb
000001f0: 4813 813d 061c e5bc ba02 07bd 10c3 383c
00000200: 8a93 d0bc f662 9dbd 60e3 00bd 727f c7bc
00000210: c57f 95bb 39d0 52bd e6bf 1ebc eecb bf3d
00000220: 31b0 17bc d021 f83c a853 07bc 6bd2 583c
00000230: 8fd4 ac3c a80b 6abd 7361 413d 9274 f1bb
00000240: 824a 853c 4044 1c3d f2ac fd3c 2970 eabc
00000250: 9389 d63c f5ac a3bc 0569 1abc 5cc0 043a
00000260: 04a5 5b3d a8d7 733d 8238 09be 57ca 65bd
00000270: 5abc aa3d 2b2d dbbc 0a1f ca3c 3968 85bc
00000280: ec09 313d eb3f f7bc b319 49bc 6a00 17bd
00000290: 369c 603d e484 0e3d 38d0 543d ad2f d53a
000002a0: 55d0 e3ba 81f3 20bd ad4e 033d a9c8 cb3d
000002b0: 1c8c a83c 1e60 9f3c db99 a33c 8347 d4bd
000002c0: 1993 8fbd 9dd3 c93c 405e e9bb 39e5 8d3d
000002d0: 4396 123c 4c1d 4dbd f0fc 243c 8c07 8a3c
000002e0: a254 303d 1aca 743a 42b7 0a3d 313b 763c
000002f0: 40c0 46bc 8427 25bd b493 9dbd 5b23 a8bd
00000300: 9696 2ebb b69d 5fbc 186f 80bb f6f0 86bd
00000310: 152a c6bc 986e 213d ba0e 2e3d 2ea1 babc
00000320: 610a 3ebd d3db 5339 b53d e1bc 6957 b1bc
00000330: 8fa0 04bd b841 e13a 03c4 3abc f1a8 53ba
00000340: a67a 263d 96ff df3c daeb ba3c a20e 93bc
00000350: aafa 8e3c 08a6 2cbc 1825 b9bc 9d5e fe3c
00000360: d5cc 98bc 2321 9ebc 11e4 333c 16e7 183d
00000370: 55d5 d8bc 2461 123c e448 3fbd bed8 323c
00000380: b12f 2abd 5d48 c33d cd36 1c3d ab81 b5bc
00000390: 2374 043c 694e 1bbb 07c4 65bd b954 3abd
000003a0: 5f54 bbbb 8433 e13c 029c 0abc f2d7 ac3c
000003b0: f21d 4dbd 6e3a 873d 7e20 4d3d 3523 a13c
000003c0: 3263 22bc a0cf 023c 7302 94bc da97 aebc
000003d0: aca1 563d 9146 a2bb a575 1cbd 30e4 1fbd
000003e0: e7e2 0b3b 7bc3 243c 992d cebc 1444 f1bc
000003f0: 833b cbb9 7a18 d93c add8 2abd a60e 513a
-0.0013926203 -0.024856314 0.012018118 0.01801989 0.0056756437 0.029569054 0.026170691 -0.031128801
0.012971564 -0.009896315 0.0037345958 0.041816123 0.017421065 -0.039857496 -0.044036873 -0.0076611596
0.00045039057 -0.034447305 0.038882844 -0.011921386 -0.00814372 0.011801663 0.016671332 -0.009668842
-0.015415376 0.009500843 -0.03806085 0.011546256 0.037594337 -0.0464307 -0.053508405 0.06050073
-0.013688289 0.057954196 -0.037890922 0.01823942 -0.032912042 0.018146688 0.006865718 -0.07283954
0.009520899 -0.017292421 -0.09276732 0.020534134 0.0139659755 0.10529633 -0.069455914 0.044522785
-0.016553069 0.009142995 -0.011368541 0.01123586 -0.0296072 0.016232837 -0.027446643 0.020244636
0.052064594 0.0015507345 0.08380533 -0.058684893 -0.031288564 -0.0072508897 -0.12031872 0.04453459
-0.049456816 -0.10521425 -0.038555305 -0.037447143 -0.013877356 -0.0284058 -0.022965813 -0.0051188977
-0.014526259 -0.018657846 -0.056693614 -0.015634952 -0.11052544 0.004043046 0.008276218 -0.028342277
0.03540331 -0.024305293 -0.0042450647 0.01396335 0.012971983 0.007082559 0.03730316 -0.008176276
-0.02235756 0.032934688 -0.03512655 -0.001662221 0.03692793 0.060753845 -0.008887142 0.01199946
0.02533428 -0.040929075 -0.00045149648 0.019646438 0.023058558 0.06095984 0.03182123 0.014242007
0.05906093 -0.009255191 0.01605736 0.022305237 -0.0137723265 -0.0044900686 -0.007981487 -0.03760977
0.00093695876 0.005980059 0.029340193 0.056195546 0.011508805 -0.01343804 0.0076338546 0.010621412
-0.046198137 -0.049876478 -0.033059634 -0.0032070512 0.06302506 -0.027967464 -0.032961585 0.011276975
-0.025460977 -0.07684891 -0.03146684 -0.024352763 -0.0045623505 -0.051468108 -0.009689307 0.093650684
-0.009258316 0.03028956 -0.008259691 0.013233761 0.02109745 -0.057140023 0.047212075 -0.0073686326
0.01627088 0.038151026 0.030966256 -0.028617935 0.026188647 -0.019979933 -0.009424453 0.0005064064
0.053624168 0.059531838 -0.13400462 -0.05610117 0.083367065 -0.026754936 0.024673004 -0.016285049
0.043222353 -0.030181846 -0.012274194 -0.03686563 0.054836474 0.034794703 0.051956385 0.0016264819
-0.0017380813 -0.039294723 0.032057453 0.09950382 0.020574622 0.019455012 0.019970825 -0.10365202
-0.070104785 0.024637038 -0.007121831 0.069284864 0.008946958 -0.050076768 0.010070071 0.016849302
0.043049462 0.0009337977 0.033866175 0.015028761 -0.012130797 -0.04032089 -0.07694188 -0.082098685
-0.002664005 -0.013648441 -0.0039194934 -0.065889284 -0.024189988 0.03941211 0.042494513 -0.022781935
-0.046396617 0.00020204419 -0.027495245 -0.021648126 -0.032379683 0.0017185723 -0.011399272 -0.00080741855
0.04064431 0.027343553 0.02281754 -0.017951313 0.01745351 -0.010537632 -0.022600695 0.031050975
-0.018652359 -0.01930291 0.010979668 0.037329756 -0.026468912 0.008934293 -0.046700373 0.010915933
-0.04154939 0.095352866 0.0381382 -0.022156557 0.00808433 -0.002369786 -0.05609515 -0.045490954
-0.005716845 0.027490385 -0.008460047 0.021099064 -0.050077386 0.066029415 0.050079815 0.019670108
-0.009911345 0.007984072 -0.018067574 -0.021312643 0.052400276 -0.00495226 -0.038198132 -0.039035976
0.002134496 0.010056372 -0.025168227 -0.029451407 -0.00038763517 0.02650093 -0.041710544 0.00079749

genenet_fcs.0.bias f4 [64]
00000000: 2d5c 10bd d665 993a e87f 733b 8515 8ebc
00000010: cb1f fcbc 4e31 86bc f80a de3c c5e8 473b
00000020: 20a0 083c 0621 633c f918 f2bc d155 1e3b
00000030: 9e6d 02bd 94ac 02bc f644 243d ee89 d63c
00000040: 0511 183d 4ecd 193d 4d69 09bd d5ae 61bc
00000050: dc7c 0bbd b1bd 31bc 7dfb d9bc c096 29bd
00000060: f526 19bc f48d d73c bf60 2d3d 3e99 17bd
00000070: 8ae2 823c a8b0 d73c 74b5 913c fd3b adbc
00000080: c18a 2ebd 00ba f6bc 982a 13bd fe42 8abb
00000090: 7181 f4bc 51f9 fcbb b5cf f13c 2de3 223d
000000a0: bdd2 d43c 8894 c53c a9b8 e23c f31e fc3c
000000b0: 14a2 9bbc 37b0 07bd ddcb 14bd b02d 08bd
000000c0: 41fb 053a 3565 b43c 4dd0 10bd c9ae 873c
000000d0: 8d36 89bc 5fe9 03bd 8b9a e2bc 15e8 2b3d
000000e0: fc31 f1bc 46ec 7fbc c746 633b ad3e 093d
000000f0: 3364 e4bc 1227 933c d9ad 07bd 0248 913c
-0.035244156 0.0011703323 0.0037155095 -0.017344246 -0.030776879 -0.016380932 0.02710484 0.0030503732
0.008338958 0.013862854 -0.029552924 0.0024160037 -0.03184282 -0.007975716 0.04010483 0.026188817
0.037125606 0.03754931 -0.03354769 -0.013774593 -0.034054622 -0.010848449 -0.026609177 -0.041403532
-0.009347667 0.026312806 0.042328592 -0.037011378 0.015977163 0.026329353 0.017786719 -0.021146769
-0.042612795 -0.030117989 -0.035929292 -0.004219412 -0.029846879 -0.0077201505 0.029517988 0.039767433
0.025979394 0.024118677 0.027675943 0.030776476 -0.018998183 -0.033127036 -0.03632723 -0.033246696
0.0005110987 0.022020916 -0.0353549 0.016562836 -0.016749645 -0.032204982 -0.027661582 0.041969378
-0.02944278 -0.015620297 0.0034679638 0.033507038 -0.02787981 0.017962966 -0.03312478 0.017734531

genenet_fcs.1.weight f4 [64]
00000000: 5a19 db3e 5b38 d53e 14c8 d83e ea0e dc3e
00000010: 4325 de3e 830c e13e f4e9 de3e df61 d33e
00000020: 9a48 d43e 9647 d63e 40d8 e03e 6cc3 d33e
00000030: e8dd da3e 1165 d73e 2bc8 dd3e ff0f d43e
00000040: a7d5 d73e f93a da3e 0afb d53e 9ced d03e
00000050: 50a6 d93e fb5a d43e 77f6 db3e 3d01 dc3e
00000060: 4e10 d73e 4036 d63e 5ded da3e a51d d83e
00000070: 0780 dd3e 209c cd3e 3d07 d63e 5bca d93e
00000080: 0db1 ce3e 4b3c d43e 1423 d73e c1fd d73e
00000090: 68e0 d73e 6d3c dc3e 22a4 dc3e d11e d43e
000000a0: 1259 ca3e 765f d13e a5ad d63e ed84 de3e
000000b0: d98c dd3e 1a16 d53e adc9 dd3e dbb4 d93e
000000c0: 2867 d53e 02e0 d43e 4c5f d63e e1b7 da3e
000000d0: 3cd9 e73e 06f5 db3e c6e0 da3e 098f dd3e
000000e0: a590 d83e f494 dc3e 2374 e43e c6f4 e03e
000000f0: 73dc d73e 0243 dc3e 3da6 db3e bd8e da3e
0.4279278 0.41644558 0.42340147 0.4298013 0.43387803 0.43954858 0.43537867 0.41285607
0.4146164 0.4185149 0.43914986 0.41360033 0.42747426 0.42069295 0.4331678 0.41418454
0.4215519 0.42623118 0.4179309 0.40806282 0.425097 0.41475663 0.42961475 0.42969695
0.42004627 0.41838264 0.4275922 0.42210117 0.4326174 0.40158176 0.41802397 0.42537197
0.40369454 0.4145225 0.4201895 0.42185786 0.42163396 0.4301485 0.43093973 0.4142976
0.3952108 0.40893143 0.41929355 0.4346079 0.4327152 0.41618425 0.4331793 0.42520794
0.41680264 0.41577154 0.4186958 0.42718413 0.45282924 0.42960376 0.42749614 0.4327319
0.42297855 0.43082392 0.44619855 0.43936747 0.42160377 0.43019873 0.42900267 0.42687026

genenet_fcs.1.bias f4 [64]
00000000: 659d 23be c46a 48be 26d9 c6bd d687 47be
00000010: 84ee 47be c790 febd 2d9c 22be 3068 27be
00000020: 8ad6 bfbd 3f30 4ebe 9ce9 80be 3b11 f7bd
00000030: 895e 10be 301b f9bd 6525 1abe 81c4 17bd
00000040: b8b6 9cbd 8c66 09be 05db 00be 5a63 22be
00000050: 0435 dbbd d969 8bbd b0d9 28be 40c7 11be
00000060: 996a 40be 0ed2 50bd debe 2ebe fa2f 1dbe
00000070: 8009 4abe 05fb d9bd d27c 23be 927a 3fbe
00000080: 2a06 3bbe 42a8 16be c128 a8bd 336d 60be
00000090: e4d8 cabd 2cf5 07be f3e4 d8bd b5f9 46be
000000a0: 79ff 94bd 0733 13be 8f74 89bd bda6 00be
000000b0: c50b 4cbe 3266 3fbd 7b9b 30be f28b 3bbd
000000c0: dcfd 0dbe abf0 fdbd d965 15be 8f70 03be
000000d0: bb45 73be ea01 57be 07a9 31be 854f 18be
000000e0: e372 cbbd aa97 3abe f851 4cbe 9692 40be
000000f0: 7551 8fbd 0b35 46be 07d6 53be 80cc 64bd
-0.1597801 -0.19571978 -0.097093865 -0.19485411 -0.1952458 -0.12429958 -0.15879889 -0.16348338
-0.09367092 -0.20135592 -0.2517823 -0.12063833 -0.14098562 -0.12163389 -0.15053327 -0.037052635
-0.07652038 -0.13418025 -0.1258355 -0.15858212 -0.10703471 -0.06807298 -0.16489291 -0.14236164
-0.18790664 -0.050981574 -0.17064998 -0.15350333 -0.19730186 -0.10643581 -0.15965584 -0.186991
-0.1826407 -0.14712623 -0.08210898 -0.21916656 -0.0990465 -0.1327712 -0.105905436 -0.19431193
-0.0727529 -0.14374934 -0.06711685 -0.12563606 -0.19926365 -0.04672832 -0.17246811 -0.04578776
-0.13866371 -0.123994194 -0.14589633 -0.12835906 -0.23757069 -0.20996824 -0.17349635 -0.14874084
-0.09934022 -0.18221918 -0.19953144 -0.18805918 -0.069979586 -0.19356172 -0.20687114 -0.05585909

genenet_fcs.1.running_mean f4 [64]
00000000: 9a46 16bd fca0 3a3c b01d 3fbc c119 1dbd
00000010: ae2e 92bd f40f c4bc 56bd c23c f962 213c
00000020: f685 023d 0200 d43c 5c61 38bd 3b19 0ebc
00000030: 3f0d 22bd aaa2 c4bc 0820 9d3c 865f 0f3d
00000040: 6730 f63c eda2 ba3c c254 15bd 90dd b1bc
00000050: e25f 01bd 9ae5 c5bc 7682 3cbd 9abe 67bd
00000060: a1e0 b0ba abb6 103d 65d1 ed3c ba30 d7bc
00000070: 6045 c9bb e88c 203d 46b5 8a3c f2b6 6cbd
00000080: 0eca 2fbd 64d6 0dbd bc7c a8bc 0bd0 c3bc
00000090: 1488 4fbc 3da0 2e3c 8aef 373d 844d 143d
000000a0: 75ca 753c b3a4 da3c 7982 033d b1f8 503d
000000b0: b224 00bc 9974 06bd a54f 2cbd 72e2 e8bc
000000c0: 0659 623c ab76 f53b 276e 2dbd 1fe6 eb3c
000000d0: ae12 e6bc f5f7 a1bc 2849 a6bc 14fe ed3c
000000e0: 957e bbbc 7f0c 2fbd 3779 b6bb f07b 133d
000000f0: 298c eebc 7535 253c cec1 31bd aac3 293b
-0.036688425 0.011390921 -0.011664793 -0.03835464 -0.0713781 -0.023933388 0.023771923 0.009850257
0.031866036 0.02587891 -0.045014724 -0.008673008 -0.039563414 -0.024003346 0.019180313 0.035003208
0.030052377 0.022782767 -0.036457784 -0.021712095 -0.03158558 -0.024157334 -0.046022855 -0.056578256
-0.0013494679 0.035330456 0.029030511 -0.026268352 -0.0061423033 0.03919688 0.016932141 -0.057791658
-0.042917304 -0.034628287 -0.02056729 -0.023902914 -0.012666721 0.010658321 0.044906177 0.036206737
0.015001883 0.026689863 0.03210685 0.05101842 -0.007821249 -0.03282604 -0.042068142 -0.02842829
0.01381517 0.007490953 -0.042341378 0.028796254 -0.028085079 -0.019771555 -0.020298555 0.029051818
-0.022887507 -0.042736527 -0.005568649 0.036006868 -0.029119568 0.010083546 -0.043397717 0.0025903978

genenet_fcs.1.running_var f4 [64]
00000000: b367 193e 5c61 123e eaf6 f63d 9cd6 063e
00000010: dcab 763e b27c 2d3e a041 2b3e 6a66 dc3d
00000020: 408d b93d edae 303e 24e0 593e 2663 d93d
00000030: bca0 173e 02a1 d03d 0b13 143e 6dc2 023e
00000040: 21f8 e83d 39ce 213e b251 f83d 287c e93d
00000050: c59b ba3d ec15 a83d 9e6b 363e 3504 0a3e
00000060: 532e ff3d 56d0 c63d fd23 473e 7976 1a3e
00000070: 95d0 203e f314 b93d 621c 113e 85be 1f3e
00000080: b3d6 d03d aa4f de3d 0899 983d f703 213e
00000090: 1876 123e 7b28 163e 4b54 303e 76ed 013e
000000a0: 27da 103e 8b54 e83d d1b2 cb3d 6978 c63d
000000b0: 5216 3b3e 2492 e23d ddbc 0a3e cba8 db3d
000000c0: 9760 093e 75c9 103e 369f f83d f444 c13d
000000d0: 46b9 483e ba2b 323e ae59 cf3d 6371 293e
000000e0: dd43 d33d 9981 303e 6fac 3d3e 24dc 023e
000000f0: 629b f83d cf35 3e3e 4b5b f53d a73f fb3d
0.14980964 0.14294952 0.12058814 0.13167804 0.24088997 0.16942099 0.16724253 0.107617214
0.090601444 0.17254229 0.21276909 0.10614614 0.14807409 0.1018696 0.1446039 0.1276948
0.11375452 0.15801324 0.12124957 0.11400634 0.09111742 0.08207306 0.1781449 0.13478167
0.124600075 0.09707706 0.19447322 0.15084256 0.15704568 0.09037199 0.14170983 0.15600021
0.101972006 0.108550385 0.074510634 0.15724169 0.14302862 0.1466388 0.17219655 0.1268824
0.14145719 0.1134425 0.09946216 0.09690935 0.18270233 0.1106303 0.13548608 0.10725554
0.13415752 0.1413935 0.12139742 0.0943698 0.19601926 0.17399493 0.10124527 0.1654716
0.10315678 0.17236938 0.1852281 0.1277929 0.12139012 0.18575214 0.119803034 0.12268

genenet_fcs.4.weight f4 [32, 64]
00000000: 0257 c63c 2d40 55bd 10b4 423c 8cb9 2abd
00000010: 944c bbbc 59a1 353d 4d8b 1f3d 868e 1fbd
00000020: 1c05 12bd 9006 733d d2e7 ab3d 472f 85bc
00000030: cece 4c3c 269b 0a3d f90a d23c 1a0f 2b3b
00000040: 6b57 ad3c 2044 b83c 8f01 9cbc 720d 263d
00000050: fe29 22bd 134a 86bb 0b76 973c f23d 67bd
00000060: 71c5 08bd bcdf 6f3c feff e53c 83e7 5c3d
00000070: c5e3 4abd a470 e7bc 5128 dc3c 7da4 cebc
00000080: 566e 73bc 26ee ffbc befc f0bc 0a61 963d
00000090: 36f9 1cbc f243 b8bc 6e87 f0bc 14c1 38bd
000000a0: e290 553b d560 443d 851e 493c 95ad ebbc
000000b0: 4a2a 45bd fa5d e7bb 19db e93b 51dc 273c
000000c0: 8cab 513c 58a7 2f3d cb98 bb3c aae8 ae3c
000000d0: aee9 943d d658 4abc e0ad 8bbc 1ed9 e7bc
000000e0: bc87 d1bc 6ac1 21bd 5dde 53bd db5a 373d
000000f0: 6fc6 cf3a df67 de3c 73c8 453d 1145 92bc
00000100: 1645 563d 9e88 0cbd 649b a03c d622 21bd
00000110: 3f95 6dbd 0eb3 dc3c ed9b 573c 8eea ce3c
00000120: 400d f6bc bd53 003b 3984 bb3d e8d7 0abd
00000130: 7443 243c 55a0 4c3d fa0a 363d 0b96 07bd
00000140: 891d bb3c 5fda ff3c e1d5 dbbc 21f2 823c
00000150: b571 25bd 2a6b ddbc f0e7 49b9 c514 5abd
00000160: 76b4 48bd 534a 1e3d 07f1 153d eed5 be3c
00000170: 9ec4 19bd aef1 49bc 9d16 233d 06c1 02bd
00000180: 90fc 0cbd 74c2 5bbd 8728 20bd 7fd3 0f3d
00000190: 97dd 0cbc 6239 15bd 6f6d 95bc 17ca e13c
000001a0: b2e0 453b 903d 233d 8b12 d63c 86b5 65bd
000001b0: 596b 4ebd 1421 71bc 4173 643c 9769 0b3c
000001c0: 1558 673c abfd 443c 3b2f 3c3d 3505 0f3d
000001d0: 118a 923d c783 733d e632 0ebd 4174 49bd
000001e0: 89be 5ebc fbde 7fbd de9b 10bd 8dc2 603d
000001f0: 6ed0 db3b 4975 08bb 67bd 53bd b05d a63c
00000200: adb1 e0bc f32b 1a3d df07 b8bc f3a0 3b3d
00000210: d8c3 7b3d 132f debc 366f 4bbd 883e 46bd
00000220: 3f02 90bc 7c08 63bd 9858 20bd 2cb8 e33c
00000230: a283 20bd 4249 b7bc 3101 f8bc b1b7 47bc
00000240: 4438 34bc 8f7d a3bc 07e2 d5bc 2014 d2bc
00000250: 798b 263d fcb0 413b 6f82 16bd a980 1a3d
00000260: ad98 0a3d b818 9d3c a237 0cbd 1bc0 12bd
00000270: 1da1 bd3c 9745 093d 0bde 41bd 48d3 5a3d
00000280: 2ad2 1b3d 6ad0 4c3d 7f69 2f3b dcb5 25bd
00000290: 9e47 0bba 4e31 103d b3ea 383d a887 44bd
000002a0: 49ce 28bc e24c ccbc 75c7 ecbc a231 0a3d
000002b0: 15d7 133d 1676 123d 5aaf 00bd 2cab f6bc
000002c0: 3787 34bd 849b 2abd 7c88 d7bc d719 07bd
000002d0: 5bcd 31bd 104b 46bd 1c6a 16bd 092e 2d3c
000002e0: 4906 5a3c 988b 823c 5072 703d 3263 77bd
000002f0: 091c 053c eb85 33bd ed42 88bc 6f84 6b3c
00000300: e29f 203d c93c 38bd b264 72bc fff3 f3bc
00000310: fe56 3dbd 4659 d4bb 2b83 ac3c 29d6 1b3d
00000320: e612 0abd 56e6 8b3d 09d9 3d3d 9dd9 88bc
00000330: 7131 8e3c 6b50 e83b 0be4 783b e643 27bb
00000340: e330 cb3c 7230 683d 3ae5 073d 34ca b43c
00000350: 130d 91bc 847b 24bd 9317 e83c 0937 42bd
00000360: 1ecd 21bd 638c d63c 803e b4bc 8d4d 453c
00000370: 0644 7cbd 8cc4 e7bc 3a66 18bc 5af5 e6bc
00000380: 1f4c dcbc ed73 cabc 4459 9ebb d00c 593d
00000390: 9c05 38bd dc29 e8bc 8ba5 fabc 06de 1f3d
000003a0: fa1f 5e3c c379 22bd 55fa 553c b97f 9dbc
000003b0: 4857 78bc d995 3e3c 6ea9 103d cc93 b83a
000003c0: eabd f03c ffd6 3a3d 420f 463d e0eb 793d
000003d0: 1b5e d43c 5667 f13c 3dbc 493d 110a 4bbd
000003e0: f557 1cbd 070a 38bd 6635 07bd 2272 a43c
000003f0: 89fc e6bc 11a8 68bc fa42 df3c 0e97 9bbb
0.02421141 -0.052063156 0.011883751 -0.041680858 -0.022863664 0.044343326 0.038951207 -0.03895428
-0.035649404 0.05933243 0.083938256 -0.016257895 0.012500478 0.033839367 0.025639998 0.002610153
0.021159848 0.022493422 -0.019043712 0.040540166 -0.039590828 -0.004098186 0.018488904 -0.05645556
-0.03339142 0.014640745 0.028076168 0.053931724 -0.049533624 -0.028251953 0.026874693 -0.025224918
-0.014857849 -0.031241488 -0.029417392 0.073427275 -0.009580901 -0.022493336 -0.029361453 -0.04510601
0.0032587578 0.04794391 0.012275343 -0.028769294 -0.048136033 -0.0070607634 0.007136714 0.010245399
0.012797248 0.0428842 0.022900006 0.021351177 0.07271133 -0.012350282 -0.017050683 -0.028301772
-0.025577419 -0.039491095 -0.051725734 0.04476438 0.0015851984 0.027149139 0.048286866 -0.017855199
0.05231198 -0.034309976 0.019605346 -0.039339863 -0.05800366 0.026940849 0.013159734 0.025258329
-0.030035615 0.0019581162 0.09156079 -0.03389731 0.010025848 0.049957592 0.04444406 -0.033102077
0.022841232 0.031232057 -0.026835384 0.015984597 -0.040391643 -0.027028639 -0.00019255257 -0.053242464
-0.049000226 0.0386451 0.036606815 0.023295369 -0.037541024 -0.012325687 0.039816488 -0.031922363
-0.03442055 -0.05365224 -0.03910115 0.035113808 -0.008597753 -0.036431678 -0.018240659 0.027562184
0.0030193743 0.039853632 0.026131889 -0.056081317 -0.050395343 -0.014717359 0.013943494 0.008509061
0.0141201215 0.01202337 0.04594348 0.034917075 0.0715524 0.059451845 -0.03471651 -0.049183134
-0.013595232 -0.06246851 -0.035304897 0.054873038 0.0067081964 -0.002082186 -0.0516943 0.020308346
-0.027428472 0.03763957 -0.02246469 0.04580779 0.061466068 -0.027122056 -0.049666606 -0.04839948
-0.017579196 -0.055428013 -0.03914699 0.02779778 -0.039188035 -0.0223738 -0.030274006 -0.012189792
-0.010999743 -0.019957332 -0.026108755 -0.025644362 0.040660355 0.0029554954 -0.036745485 0.037720356
0.03383701 0.019176826 -0.034232743 -0.035827737 0.023148114 0.03351363 -0.047330897 0.05342415
0.038042225 0.050003447 0.0026765761 -0.040456638 -0.0005313101 0.03520327 0.0451457 -0.047980934
-0.010303088 -0.024939004 -0.028903702 0.03373874 0.03609379 0.035757147 -0.03141723 -0.030110918
-0.044074263 -0.041652218 -0.026310198 -0.032983627 -0.043408733 -0.04841143 -0.036722288 0.010570058
0.013307163 0.015935704 0.058702767 -0.060397334 0.00812436 -0.043828886 -0.016633475 0.014374836
0.039214976 -0.044979844 -0.014794515 -0.029779432 -0.04622554 -0.006480369 0.02105864 0.038046036
-0.03370943 0.068310425 0.04634956 -0.016705329 0.01735756 0.0070896647 0.003797772 -0.0025522648
0.024803584 0.056686826 0.03317759 0.022069074 -0.01770643 -0.040156856 0.028331554 -0.047415767
-0.039502256 0.026189988 -0.022002459 0.012042415 -0.06158831 -0.028291963 -0.009301716 -0.028193165
-0.026891766 -0.02471348 -0.0048324186 0.052990735 -0.044927225 -0.028340273 -0.030596515 0.039030097
0.0135574285 -0.039666902 0.013060172 -0.019225942 -0.015157528 0.011632406 0.03531783 0.0014082133
0.029387433 0.045615193 0.048354395 0.061015964 0.02592378 0.02946822 0.049251784 -0.049570147
-0.03816982 -0.044931438 -0.03300991 0.020073954 -0.02819659 -0.014200226 0.027253617 -0.0047482317

genenet_fcs.4.bias f4 [32]
00000000: 27f1 39bd f1cc 0bbc 9ee3 13bd 671d 9e3a
00000010: aa42 683b 0454 633c a177 19bc 0c86 3bbd
00000020: 9723 4bbc 5b5d f6bc 3311 59bd 58cc 21bd
00000030: ebf2 4ebb 419d a33c 11bf 50bd 996a 433d
00000040: 981a 4dbc 8063 3e3b fa60 623c a1fe 49bb
00000050: b07d 26bd e24b 443b 83f6 4d3d 86a4 42bc
00000060: 21cb 35bd 6095 b93c ecb0 453d 74b1 49bd
00000070: 0178 07bc 0612 ae3c 348e 913a 1a59 1cbc
-0.045395996 -0.008532749 -0.036105745 0.0012063206 0.0035440126 0.013875011 -0.009366901 -0.045782134
-0.012398622 -0.030073812 -0.052994918 -0.039501518 -0.0031577896 0.019972445 -0.050963465 0.04770908
-0.0125185475 0.0029051006 0.013817066 -0.0030821937 -0.04064721 0.0029952456 0.05028392 -0.011880046
-0.044383172 0.022654235 0.04826443 -0.049241498 -0.008268357 0.021248829 0.0011105002 -0.009542728

genenet_fcs.5.weight f4 [32]
00000000: 50bb 073f d94e 043f 9475 083f d7b3 003f
00000010: 72a8 063f 10fc f13e 42f9 023f 9dbc 063f
00000020: 0d99 033f d8fe 073f 8feb 033f 7891 fb3e
00000030: 75ea 013f f13c 033f a48b 003f 4a78 063f
00000040: 907a 063f a5da f33e f3bd ff3e a6f4 093f
00000050: fa90 033f ae38 fd3e b32d f73e 78a7 0c3f
00000060: 36c4 ff3e 0b0b e73e 7d7d 063f 0aaf ff3e
00000070: d713 053f eb58 083f 9856 073f 34a0 063f
0.5302019 0.5168281 0.5330441 0.50274414 0.5260078 0.4726262 0.5116159 0.5263155
0.5140541 0.53123236 0.5153131 0.4913442 0.5074838 0.51264864 0.50213075 0.52527297
0.52530766 0.4762775 0.49949607 0.5388893 0.5139309 0.49457306 0.48277053 0.5494304
0.49954385 0.45125613 0.5253523 0.49938232 0.519834 0.5326068 0.52866507 0.525882

genenet_fcs.5.bias f4 [32]
00000000: cf93 b73d 2cc1 d53d da43 143d 29f5 7e3d
00000010: fc74 653d 11f4 cf3c 85f2 853d d264 6a3d
00000020: 2617 203d e747 bf3c 2bab ab3d 4904 473d
00000030: 9add 223d aea0 b13d 98f8 043d 7147 903d
00000040: 7c74 3d3d 78e8 8e3c 9aa2 783d 85da b03d
00000050: 727a 063d c459 d63c da7f 023d 4241 593d
00000060: 0071 533d e1a0 143a 47f2 8d3d e7d1 4c3d
00000070: 0fba 283d b487 7a3d e77a be3d 847f 113d
0.08963739 0.10437235 0.03619752 0.06224552 0.056019768 0.025384935 0.065403976 0.057225056
0.039084576 0.023349715 0.08382257 0.04858807 0.039762117 0.08673225 0.03246364 0.07044876
0.046253666 0.017444834 0.060701944 0.08635429 0.032831617 0.02616585 0.03186021 0.05304075
0.051621437 0.0005669725 0.06930976 0.050004866 0.041193064 0.061164573 0.093007855 0.035522

genenet_fcs.5.running_mean f4 [32]
00000000: 3c02 28bd 861c 81bc ddc7 95bd 87fb 803a
00000010: d56f 42bc ff52 a5bc e043 14bd 6fb8 56bd
00000020: 601a 88bd d987 bfbd f64a 52bd 4ede 92bd
00000030: 3a5f 66bd 2b90 093d 46e7 e0bd 4fd7 8c3c
00000040: df38 68bd 1ff9 7e3c 3e67 d63b 56cd 8fbc
00000050: 4f46 9ebd 7b71 28bc 5d28 6a3d 2f5e 54bd
00000060: 1ef6 bebc bf12 e53c d77d af3c b4ab 99bd
00000070: 5034 6bbd ce9c 8dbc c7c0 11bc 075d 2dbd
-0.041017756 -0.015760671 -0.073135115 0.0009840586 -0.011867483 -0.020181177 -0.036197543 -0.052421983
-0.06645656 -0.09352083 -0.05134102 -0.071713075 -0.05624316 0.033584755 -0.10981612 0.01719251
-0.05669486 0.015562325 0.006543069 -0.017553966 -0.07728254 -0.010280962 0.0571674 -0.051847633
-0.023310717 0.02796304 0.02142231 -0.07503453 -0.057422936 -0.017286684 -0.008896059 -0.042325046

genenet_fcs.5.running_var f4 [32]
00000000: 37ae 8b3c 61b2 9d3c 785e 963c f4a5 793c
00000010: 2703 933c 91c8 133c 5b64 b13c 9efe 9d3c
00000020: a85e ae3c 8cca 763c 1d32 8e3c 5889 9a3c
00000030: bf34 823c e01e b63c 9d84 8c3c 60f3 b93c
00000040: 76cc 983c 6706 6c3c 364f 833c 8ffa ba3c
00000050: 59b9 9d3c 9bf8 4a3c db45 663c a669 a83c
00000060: ddbf 713c 3895 103c 7a38 b93c 7f5e 923c
00000070: aed4 af3c 3641 a73c 978c a53c fca4 a73c
0.017050846 0.019250097 0.018355593 0.01523732 0.01794584 0.009019987 0.021654299 0.01928645
0.02128537 0.015062939 0.01735788 0.018864319 0.015894292 0.02223152 0.017153079 0.022699058
0.018652182 0.014405823 0.016028982 0.022824554 0.01925342 0.012388374 0.014054741 0.02055819
0.014755216 0.008824639 0.022609938 0.017867325 0.021463718 0.020416837 0.02020864 0.020464413

genenet_fcs.8.weight f4 [10, 32]
00000000: 64a0 a13c 2c21 ea3d a92a 85bd aa09 a6bc
00000010: dea3 e83d ad31 b5bd 4d99 84bc 38c0 e73d
00000020: bff5 64bd 9d91 8fbc 1309 50bc b70a b1bd
00000030: 686f b9bd 9f0d 95bc 262f a33b b39a e1ba
00000040: 71d2 45bd ee43 b73d 1176 683b d5c0 483d
00000050: 409c 243d 635a 85bc b4a2 cebb d5b2 c4bc
00000060: 4a06 43bd e338 153d ca18 ac3d 31b6 8d3d
00000070: 6e52 be3b a594 b8bd c870 a13d a47d bdbc
00000080: d168 613d a789 f43c 6d61 a4bd 1605 e4ba
00000090: f75d 833b 3250 3d39 2bba 24bd 143b 763d
000000a0: 5549 99bd 34b7 66bb d246 433c 71b9 d1bc
000000b0: 7981 ee3c f0bc 963d da4a 26bd f18e 963c
000000c0: ab89 0b3d 16fe 6d3d 9244 e33c 5d4c 373c
000000d0: 9d42 f1bc c42c a7ba e9b9 9f3d 133b 5e3d
000000e0: 4b7d ba3d 5050 3cbd b477 6e3c 326f 18bd
000000f0: 6448 44bc 2823 f5bc d9d0 9bbb e192 96bd
00000100: c28b 093c ed92 a6bd 5fcf 973d 06fe a23c
00000110: d830 96bd de9b 133c a0ad 1d3a 857b 0b3d
00000120: c6ec d4bc 9080 b63d d056 d5bd f45f 24bd
00000130: 3482 a63d 5f4a aabd 759d e93c 95d0 73bd
00000140: 27a6 bd3d 8c9b a8bd ecbb e93c 571f fe3b
00000150: 2718 6d3d 09ec 5b3d 7fc2 63bd d601 b53d
00000160: 6d2d 5f3d d15d 8e3d c8f6 6dbd 7f07 11bd
00000170: 1331 973c 69ab e03d 1325 77bd 548d 5d3d
00000180: aec7 f93d 27e9 ea3d c259 adbd 836d 093e
00000190: 8828 113e 71cd 33bd 09ee f73d a876 283e
000001a0: 0492 e4bd 676a 12be 6a86 943d 0c03 96bc
000001b0: 10c2 0bbe 3a6a 393e f80d 23be 7604 0e3e
000001c0: 33d4 0cbe 41cd 143e cad9 e83d 649c 6c3d
000001d0: d4c0 e9bd 9a4c f93d afec f93d 2d1a 17be
000001e0: 4aad ee3d 9eb2 673c 0c9e 393e af76 163e
000001f0: d6ad 4fbd ebcb 45be 5b32 0c3e 6167 34be
00000200: cd9c 4abd ea75 dabd 6631 203d 4069 a1bd
00000210: 9fbb bcbc 7ebb a4bc d7b3 9a3b d73e a2bd
00000220: b650 5a3d 471a 503d 6833 0dbc fc1f 773d
00000230: b3bf 873d 71be eabd ed28 963d d523 f2bd
00000240: dca7 873d 8db7 8739 be28 0ebd b9e8 edbd
00000250: 08c4 633d cc7a 56bc d892 0e3d c69b 113d
00000260: 905e f5bd d385 40bd 4186 8bbd a602 8bbd
00000270: da7a 023e f60f f13c 20df c4bd 9450 f53d
00000280: 82e4 94bc 17f1 233c 16ea 983b ea97 ab3c
00000290: 1493 a5bc baad 9e3d c3a7 13bd 97e4 9dbc
000002a0: b443 283d d81b b73c 919d d53a 892e 93bc
000002b0: 30e0 a8bd 5ebf 943d 68d3 9d3d 4476 4f3c
000002c0: ae88 883d 373b 7fbd 5a4e 5a3d 2bbc 33b9
000002d0: d278 913d 0d3f d0bc e907 23bd c75f 45bb
000002e0: 53a2 2abb 4b67 3a3d f288 acbc e08b 3d3b
000002f0: da8f 7c3d 2393 67bc 2ec5 523d 80aa 75bd
00000300: 15be b8bd d067 d53b 947c 293d 3414 8cbd
00000310: 69bc d6bc 9c2f d3bc 55bc 873d 4caf 6abd
00000320: 05e8 1abd b81d b63d 189a 36bd af40 be3c
00000330: 6485 01bd 2f8a 96bc fa17 213d 84b9 44bd
00000340: deb1 903d 94f2 8c3d 07bf 393c d6c4 93bc
00000350: ab21 7e3d 0623 1bbd 68ef 89bc 2e63 613b
00000360: 5f0c b1bb 8b35 b8bc 0e44 623d 15f3 10bd
00000370: ba50 2a3d 3d22 7f3c dbcf 863d c836 58bd
00000380: 1c67 193e d86c f13d c00b 69be a5fc 003e
00000390: 60a5 cc3d 3e92 e1bd 1f43 483e 73fa 533e
000003a0: 6510 07be 9fc8 d7bd b36a 713e 3066 0bbe
000003b0: 6eae ebbd d461 e43d 1922 b9bd c5f6 3c3e
000003c0: b096 3fbe fb9a 453d 2aee f23d 25ef 383e
000003d0: a8b9 17be 4fdb 253e 1d6a 803d 7a97 58be
000003e0: ddb0 023e be65 9bbd 63ef f63d 9f74 d73c
000003f0: 21cb 72be e29c b8bd f2b0 353e f615 95bd
0.0197298 0.11432108 -0.065022774 -0.02026828 0.1135938 -0.088473655 -0.01618638 0.1131596
-0.055898424 -0.017525489 -0.012697476 -0.08644622 -0.09054452 -0.018194972 0.0049799858 -0.0017212242
-0.048296396 0.089485034 0.0035470764 0.049012024 0.040188074 -0.016278451 -0.006306017 -0.024011055
-0.04761342 0.036431205 0.08403166 0.06919516 0.005808166 -0.09012727 0.078828394 -0.0231312
0.0550316 0.029850794 -0.08026395 -0.0017396535 0.004009004 0.0001805432 -0.040216606 0.060114935
-0.0748469 -0.0035204412 0.01191874 -0.02560112 0.029114472 0.07360256 -0.040598728 0.018378707
0.034066837 0.058103643 0.027742658 0.01118764 -0.029450709 -0.001275443 0.077991314 0.054255556
0.09105929 -0.04597503 0.014554907 -0.03721542 -0.01198015 -0.02992399 -0.004755121 -0.07352234
0.008395137 -0.081334926 0.074126 0.019896518 -0.07333535 0.00900933 0.0006014947 0.034053344
-0.025991809 0.0891124 -0.10416949 -0.04013057 0.08130303 -0.083149664 0.028517464 -0.05952509
0.09260207 -0.08232793 0.028531991 0.007755201 0.05788436 0.053691898 -0.055605408 0.08838241
0.05448668 0.06951488 -0.058096677 -0.03540754 0.018456018 0.10970194 -0.06033809 0.05408986
0.12196289 0.114702515 -0.084643856 0.13420682 0.14175618 -0.043897096 0.121059485 0.16451514
-0.11160663 -0.14298402 0.072522 -0.018312 -0.13648248 0.18106928 -0.15923297 0.13868889
-0.13752823 0.14531423 0.11369665 0.057766333 -0.11413732 0.12172814 0.12203347 -0.14756079
0.11654146 0.014141707 0.18126696 0.14693712 -0.050702892 -0.1931607 0.13691084 -0.17617561
-0.049465943 -0.106670216 0.03910961 -0.07881403 -0.023038683 -0.020108934 0.0047211456 -0.07922142
0.05329963 0.05080631 -0.008618213 0.060333237 0.066283606 -0.11462105 0.07332025 -0.11823241
0.066238135 0.00025885963 -0.034706824 -0.11616654 0.05560687 -0.0130908005 0.03480801 0.035548948
-0.11980927 -0.047002625 -0.06812716 -0.067876145 0.12742177 0.029426556 -0.0961287 0.1197826
-0.018175367 0.010006211 0.004666577 0.020946462 -0.020211734 0.077479795 -0.036048662 -0.01927404
0.04108019 0.022352144 0.0016297569 -0.017966526 -0.08245885 0.07263063 0.07706338 0.012662474
0.066666946 -0.06231233 0.053297378 -0.00017140868 0.07103123 -0.02542069 -0.039802466 -0.0030116902
-0.0026036694 0.045508664 -0.021061394 0.0028922483 0.061660625 -0.014134201 0.051457576 -0.059977055
-0.0902063 0.0065126196 0.041378573 -0.06839791 -0.026212888 -0.025779538 0.06627718 -0.057296082
-0.037818927 0.08892387 -0.04458055 0.023224203 -0.03162135 -0.018376438 0.039329506 -0.048028484
0.070651755 0.068822056 0.011337048 -0.018038195 0.062043827 -0.037875198 -0.01683779 0.003439139
-0.005403086 -0.022486469 0.055240683 -0.03538807 0.041580893 0.015572128 0.06582614 -0.05278662
0.1498074 0.117883384 -0.22758389 0.12596376 0.0999248 -0.110142216 0.19556855 0.20701008
-0.13189848 -0.10536312 0.23575859 -0.136132 -0.11507879 0.11151472 -0.09039707 0.1845351
-0.18709826 0.048243504 0.118618324 0.18059976 -0.14816916 0.16196941 0.062702395 -0.21151534
0.1276278 -0.07587765 0.12057378 0.026300726 -0.237103 -0.09014298 0.1774328 -0.07279579

genenet_fcs.8.bias f4 [10]
00000000: fda6 20bd 65aa 44bd 2532 85bd c6d6 433c
00000010: 20d4 833d cd66 023d 839b b53c 453b aebb
00000020: 83de e3bc 1f8b 8cbc
-0.039221752 -0.048014063 -0.06503705 0.011953061 0.06436944 0.03183632 0.02216888 -0.005317124
-0.027816063 -0.017156182

genenet_fcs.9.weight f4 [2, 10]
00000000: 58df 513e 2887 b43d 26ed 33be e2cf f63e
00000010: 8646 7ebe 4a9d 83bd 6864 01be 05c8 113f
00000020: 3a4e 1ebf 0e35 623c 462f b9bd 13cf adbd
00000030: ac95 db3d 16f4 f1be 46a4 613e d0a7 dfbc
00000040: c8ef 2cbc 294b 0dbf 7f48 1b3f 4f6a 47be
0.20495355 0.088148415 -0.17570934 0.48205477 -0.2483159 -0.06426485 -0.12635958 0.5694583
-0.61838114 0.013806595 -0.0904222 -0.08486762 0.10721907 -0.47256535 0.22035322 -0.027301699
-0.010555215 -0.5519281 0.60657495 -0.19474147

genenet_fcs.9.bias f4 [2]
00000000: ff7a 2fbe 0fa9 a83d
-0.17136763 0.0823537

momentum_buffer f4 [64, 96]
00000000: cc46 913d 20ae 363e cadd 43be 20cf 44bd
00000010: fcf2 4a3c 8057 ddbc 5ced 963d 4d39 97bc
00000020: 6f3d 3c3e 4fea 43be 7bb2 43be 32b5 f83d
00000030: 989e 823c 1deb 28bd 980c 34bb b4b5 3a3c
00000040: 6038 f5bc ac97 1cbe 5ce5 3e3e 3818 44be
00000050: d124 45be a4a6 943d 2afe ef3d 9a17 8bbc
00000060: e062 4f3c 4c51 073d 68d8 0cbb f235 5a3c
00000070: c0c2 d6bc 20d2 1dbe 768b dcbc c805 873e
00000080: be81 37bd c82e ed3d b676 8a3d 7150 f03d
00000090: ef26 9ebc f236 833c aadb 28be 1c7c db3c
000000a0: 4930 5dbe 1df9 bebd e11b 0a3e 903c ccbd
000000b0: dc06 6abd 5d1f 0cbe ce90 7f3c 9825 883c
000000c0: f894 01bd cc45 e6bd 123a 1abe a6b3 593c
000000d0: 4095 103e da4e cc3d d898 463e f1f5 843e
000000e0: c6e4 2b3e 3033 59bc 1fc0 db3d eecd bcbd
000000f0: be87 273e 4628 d23d 088d b43c 6bdc a03d
00000100: ece9 0e3e 96a1 783e 5c7c 41bd cb72 1f3d
00000110: a4ae f7bd 22d4 d43d 1e58 a33e fd54 a4bd
00000120: a05e 0bbe 74d9 133e 4e3c c9bd daab 6cbe
00000130: 57ee 8d3d 9064 1fbc fdee cd3d 09b4 3bbe
00000140: 91c2 483d f8e5 d8bd ed43 88bd d67c a1be
00000150: f0f8 1ebd b7df 68bd b14a 69bd 404b fcbc
00000160: fdba ecbd e0a8 763d 809d eab9 42f5 e83d
00000170: bd46 15be 8b11 01be b8b6 e7be 39c5 1fbd
00000180: 742c b8bc f42d cdbd 7fc1 af3d b6ae 05be
00000190: ecaa 553d c82a 9b3e afda b2bc b65e ab3c
000001a0: b19b bebd 780d e5bc 780b b43d 953f 10be
000001b0: b49b 25bd 4e77 a0bc d732 0abd 989c 413d
000001c0: 4317 983e 93b3 e53d 79b3 c4bd c751 afbc
000001d0: 2253 b33d 09d5 b0bc fc42 11be 3c35 f9bc
000001e0: 34e7 32bd d848 b53c 1c7b 14bd 96b7 4f3d
000001f0: e145 9b3e f7bd de3d 2e1e 4cbd b904 4abe
00000200: 6d2a 153e 3804 f3bc bd9d bfbc 568a 14be
00000210: 58d4 02bd 5b10 35bd 57a8 4d3e 4b4a 60bd
00000220: cea4 9b3e 4b84 aa3d 123f e7bd 547c bbbd
00000230: 2897 423d 1bd1 973c fc06 f43a c802 4e3d
00000240: 74e0 983e 3442 813d e2d2 ea3d 664c 453d
00000250: 2d2f e0bd dcf9 cebd 7896 6ebc 3e20 4bbe
00000260: d612 1cbe c212 debd 8c02 063e 1941 b6bd
00000270: cf4b da3d c641 a7be 5d92 7cbd b4c3 78be
00000280: fe2b c7bc c722 19be e6a3 163e 299e d5bc
00000290: 3085 083f 5479 e5bc fa1e 4c3c 06e5 b9bd
000002a0: cfcc dfbc 75fa 24be 181e 8bbe 5d8b 933d
000002b0: 2056 83bd a2b4 dfbd b802 7dbc b413 1e3e
000002c0: e660 d7bd 970b c33d d78d 743e 5e2b b3bd
000002d0: 752c 993d 6ec2 2a3d 96b6 8d3d 0ae8 983e
000002e0: 4843 823d 615f 4ebc b38f 563d de84 763c
000002f0: 17fd e13d ee76 953e 10df f63e 6f1f 8fbc
00000300: 3ece 20be aac9 aabb 74e5 3abb 1a97 303d
00000310: 62b5 303d a445 223d 422d 1cbe 4081 893c
00000320: 7e41 c23c 662a 8f3d 28a9 26bb ef01 db3d
00000330: 90f8 633c 390a 0abc 6b20 81bd ecd3 343d
00000340: fac6 223d 66cb 25bc 4c03 fb3c d367 8b3d
00000350: 761d 033b 198c 22be 56c1 d93d 71c2 b8bb
00000360: fa7b 7a3c eeb7 973c e313 79bd e676 443d
00000370: 9842 073d 86fc 43bc c125 dabd 082f 6aba
00000380: 2e7a ccbb 9d10 b23c d18e 1dbe a5d8 d93d
00000390: c30b 02bc 1c98 8a3c 389d 2cbd 5e50 d0bb
000003a0: 9a15 623d c312 cd3c 1a6b 1cbb 3c96 aeba
000003b0: e598 d03c 9aff 593d 16d1 563c 4e39 3d3d
000003c0: 880c 0e3d 163b bf3d 4a45 70bc a46b 2c3d
000003d0: d9d5 723b ec02 003d ee74 8d3d a21f c1bb
000003e0: 7a54 ba3c 5253 e53d 96b8 143c 4ad5 ecbc
000003f0: bb3e b9bb e298 2bbc f6e9 c3bb 7d5c e03d
0.070935816 0.17839861 -0.19127575 -0.048049092 0.012387034 -0.027019262 0.073694915 -0.01845994
0.1838281 -0.1913235 -0.19111054 0.12143935 0.015944764 -0.041239846 -0.0027473327 0.01139586
-0.029934108 -0.15292233 0.18642181 -0.19149864 -0.19252326 0.07258347 0.117184 -0.016979028
0.012657851 0.033036515 -0.0021491293 0.013318526 -0.02621591 -0.15412188 -0.026921969 0.26371598
-0.044801466 0.115811884 0.067609236 0.11734093 -0.019305674 0.01601741 -0.16490045 0.026792578
-0.2160045 -0.09324858 0.13487197 -0.09972489 -0.057135448 -0.13683839 0.015598489 0.016619489
-0.03163621 -0.112437814 -0.15061215 0.01328746 0.14119434 0.09975977 0.19394243 0.25968888
0.16786489 -0.013256833 0.107300036 -0.092189655 0.16360375 0.10261588 0.022039905 0.078545414
0.13956422 0.2428039 -0.04723774 0.038927834 -0.12093857 0.103920236 0.31903166 -0.08024023
-0.13610315 0.1443842 -0.09825955 -0.23112431 0.06930225 -0.009728566 0.10055349 -0.18330397
0.049013678 -0.10590738 -0.06653581 -0.31540555 -0.038811624 -0.056853976 -0.056955997 -0.0307976
-0.11559103 0.060219646 -0.00044749305 0.11374904 -0.14577766 -0.12604348 -0.4525659 -0.039006446
-0.022482134 -0.100185305 0.08581828 -0.13054928 0.052164957 0.30306077 -0.021832792 0.020919185
-0.093070395 -0.027960524 0.0879125 -0.14086755 -0.040431693 -0.019588139 -0.03373989 0.04726848
0.29705247 0.11215892 -0.09604544 -0.0214013 0.08756091 -0.021585958 -0.14185709 -0.030420892
-0.043677524 0.022129461 -0.03625022 0.05071219 0.3032675 0.10876077 -0.04983347 -0.19728364
0.14566965 -0.029665098 -0.023390645 -0.14505896 -0.031940788 -0.04420505 0.20083748 -0.05475835
0.30399173 0.08326014 -0.112913266 -0.09154573 0.047507435 0.018532326 0.0018617804 0.05029562
0.29858744 0.06311455 0.11466004 0.048168562 -0.10946498 -0.10106251 -0.014562242 -0.19836518
-0.1524156 -0.108434215 0.13086909 -0.08899135 0.106589906 -0.3266737 -0.06166302 -0.24293405
-0.02431297 -0.14954673 0.1471096 -0.026076393 0.5332823 -0.028011955 0.012458557 -0.09076886
-0.02731934 -0.16111167 -0.27171397 0.07204316 -0.064129114 -0.10923125 -0.015442543 0.15437204
-0.10516529 0.09523695 0.23882233 -0.08748506 0.07479183 0.04168933 0.06919591 0.29864532
0.06360489 -0.012595982 0.052383136 0.015046326 0.11034601 0.291923 0.48217058 -0.017471043
-0.15703675 -0.0052120285 -0.0028518112 0.04311285 0.04314173 0.039617196 -0.1525164 0.016785264
0.02371287 0.06990509 -0.0025430415 0.10693728 0.013914242 -0.008425289 -0.06305011 0.044147417
0.03974054 -0.010119295 0.03064122 0.06806912 0.0020006574 -0.15873756 0.10632579 -0.0056384136
0.015288347 0.018520322 -0.06080998 0.047964953 0.033022493 -0.011962062 -0.10651732 -0.00089334
-0.006240151 0.021736437 -0.15386511 0.10637025 -0.0079373745 0.016918235 -0.042142123 -0.0063572368
0.055196382 0.02503336 -0.0023867548 -0.001331992 0.02546353 0.053222276 0.013111373 0.046197228
0.03467992 0.093374416 -0.014664957 0.04209484 0.0037053733 0.031252787 0.06907068 -0.0058936635
0.02274536 0.11197533 0.009077212 -0.028910298 -0.00565323 -0.010473462 -0.005978818 0.10955141

momentum_buffer f4 [64]
00000000: b834 67bb 3f9c f538 dcfe c239 d08f e3ba
00000010: d7e6 49bb 4bec d6ba cecf 313b 6917 a039
00000020: d3d1 5a3a b4e2 b53a 43df 41bb 159a 7d39
00000030: c8e4 50bb ce4a 51ba 268c 833b 96cd 2b3b
00000040: 968c 733b 7d54 763b de13 5cbb b8b9 b4ba
00000050: 6e67 5fbb aa55 8eba af8f 2ebb b9ce 87bb
00000060: 8049 75ba e09d 2c3b 61d7 8a3b 30cd 72bb
00000070: f19e d13a a1b9 2c3b bc5e e93a 26ba 0abb
00000080: eac5 8bbb 1594 45bb a2b3 6bbb 3c70 ddb9
00000090: cecc 43bb 6696 4aba 87a4 413b ef70 823b
000000a0: c16d 2a3b 2039 1e3b 858e 353b 29e6 493b
000000b0: 1a43 f9ba 6951 59bb ec4f 6ebb bd1a 5abb
000000c0: f78c 5638 2176 103b a1ee 67bb fc4e d93a
000000d0: 9ac2 dbba 4145 53bb d576 35bb caa9 893b
000000e0: ee25 41bb b0f1 ccba 8601 b639 58cf 5b3b
000000f0: e6e4 36bb a1ae eb3a f64d 59bb 1aaf e83a
-0.0035279226 0.000117116135 0.00037192449 -0.0017361585 -0.0030807757 -0.0016397325 0.0027131918 0.0003053502
0.0008347306 0.0013876767 -0.0029582537 0.0002418536 -0.0031874646 -0.0007983864 0.0040145097 0.0026215068
0.0037162653 0.003758698 -0.0033581178 -0.0013788259 -0.0034088749 -0.001085927 -0.0026635935 -0.0041445163
-0.00093569607 0.0026339218 0.004237101 -0.003704857 0.0015992803 0.002635576 0.0017804722 -0.0021168082
-0.0042655366 -0.0030148078 -0.0035965224 -0.00042236026 -0.0029876712 -0.00077280996 0.0029547529 0.003980748
0.002600536 0.0024142936 0.0027703356 0.0030807352 -0.001901719 -0.0033160097 -0.0036363555 -0.0033280097
5.115286e-05 0.0022043067 -0.0035390037 0.0016579325 -0.001676637 -0.0032237323 -0.0027689238 0.0042011486
-0.002947207 -0.0015635993 0.0003471488 0.0033540335 -0.002790743 0.0017981121 -0.003315804 0.001775238

momentum_buffer f4 [64]
00000000: 993e 963e a405 71bc db6f 283d b0bb 133d
00000010: 458a 7abe 5b64 6e3e 3eff 8f3e 661e a03d
00000020: 9256 a63c c4cc 833e e359 31be 09d5 ba3d
00000030: 3471 253e b20f 813e b073 cabd 4bf6 5f3b
00000040: f8b8 9f3d 5d55 253d 56e4 673d ba2e 5e3e
00000050: ff1c f6bc d348 d43c 7daa 09be c7ab 5ebd
00000060: b636 923d a2df 893d 167a 653e 6a87 183e
00000070: 3f98 113e 8de5 45bc ea99 e83d 0c2f d6bd
00000080: 1f6e a63e 1539 4b3e 5adb a4bc fd02 253e
00000090: 20f9 37ba ac12 863b 5c2a 4fbd 1d14 e53d
000000a0: 0b5a 883d d46e f83c 18d2 fd3d 329d 513e
000000b0: 495b a4bd a51a de3c a0cc 103c 4846 953c
000000c0: cdcc bd3c dcec cf3d 026b d73d ae97 f03c
000000d0: 34c6 2cbe 1fec 0bbe d60e c73d 0a33 6d3c
000000e0: 4014 513c 28e0 5f3d 9a2a fc3c 91eb 913e
000000f0: 46f0 32bc 66c1 d7bd 5735 a33c 7a28 b33b
0.29344633 -0.0147108175 0.0411223 0.036067665 -0.24466808 0.2328047 0.28124422 0.07818298
0.020304952 0.2574216 -0.17319445 0.091226645 0.16156465 0.25207287 -0.09885347 0.0034173902
0.07798952 0.040364612 0.056614242 0.21697512 -0.030043123 0.025913632 -0.13443942 -0.05436304
0.071393415 0.06732108 0.22409853 0.14895406 0.14218234 -0.012078655 0.11357482 -0.10458192
0.3250589 0.19845994 -0.020124126 0.16114421 -0.00070180185 0.0040915813 -0.050577506 0.11185477
0.06657799 0.030326284 0.12393588 0.20470122 -0.08025224 0.027112314 0.008837849 0.01822199
0.023168946 0.10152599 0.10518457 0.029369202 -0.16872483 -0.13664292 0.097196266 0.014477501
0.012761176 0.05465713 0.030782033 0.28500035 -0.010921543 -0.10534935 0.019922895 0.0054674717

momentum_buffer f4 [64]
00000000: a954 893e d2e4 12bd e018 2a3c 8faa 323d
00000010: c449 afbe e77e 803e 24f3 823e 810a 143d
00000020: da9e 5c3d 2b63 573e 8a2c 24be de02 623d
00000030: 9029 173e 774f 4e3e 0021 f2b9 752e 01bd
00000040: 24af ba3c 8e63 23bc 71dd 903d 9eed 663e
00000050: 2d2a b0bd e463 e4bb 7946 8bbe 85e5 1bbe
00000060: 654c a53d 0dfe aa3d 89e0 483e 2bb5 a33d
00000070: 3cb6 b83c 96dc e1bd f0cf 47bc caf6 9cbd
00000080: d88b ab3e 3957 1c3e 8f6d 80bd 7891 3a3e
00000090: 8adf 0ebd ed25 e6bd 435d fdbd b541 8c3d
000000a0: 8a88 8c3c 9a71 a9bd 2af7 a93d d000 5b3e
000000b0: 8aed c6bd 5db2 f2bc 04fb a4bd 3475 05bd
000000c0: 5a08 943c d686 f73d 7d07 e83d d5a1 bc3c
000000d0: 64d2 84be 6d8a 56be 2e68 143d 93c4 a23d
000000e0: 0608 02bd be88 553d ac8b 973c f9ab b93e
000000f0: 5fa4 8ebd 4c16 3abe cedb 1f3d ec97 0cbb
0.26822403 -0.03586275 0.010381907 0.04361969 -0.34235966 0.2509682 0.25576127 0.03614283
0.05386243 0.21033923 -0.16032615 0.055178516 0.14761949 0.20147501 -0.00046182424 -0.031538446
0.022788592 -0.009972466 0.070734866 0.22551581 -0.086017944 -0.0069699157 -0.27202204 -0.15224274
0.08071212 0.083492376 0.19616903 0.079935394 0.022547834 -0.110284016 -0.012195572 -0.07664259
0.3350513 0.15267648 -0.06270897 0.18219554 -0.034881152 -0.112377025 -0.12371304 0.0684847
0.01715495 -0.08273621 0.08299096 0.21387029 -0.09713276 -0.029626066 -0.0805569 -0.032582477
0.018070389 0.12086265 0.11329553 0.023026386 -0.25941765 -0.20951243 0.036232166 0.0794765
-0.031745933 0.05213236 0.018499218 0.36264017 -0.06964945 -0.18172568 0.03902798 -0.0021452857

momentum_buffer f4 [32, 64]
00000000: 7c80 203e 9cc6 91bd e3c8 07bd c22c 6c3d
00000010: 4b8a c43d 00b2 693a b94d ee3c 9a89 c0bc
00000020: 18f9 2ebd 8a4c dcbc ec15 debd 3c47 d6bc
00000030: 9c17 7f3c 16da 113d a6ee 41be c29d a6bd
00000040: b2b0 353c b0b8 8dbd 959b 4dbc b390 983d
00000050: 6804 8fbd 1a95 4abd b3b4 733c 8435 a53c
00000060: 12f5 03bd 02cb 543d 02a7 fb3d c895 813c
00000070: c4d0 ddbd acdf 61bd fa31 173e 3e61 633d
00000080: 2527 4dbc 9ba6 b1bd 1757 2e3d 1890 f53c
00000090: c35e 5a3e 3c88 b3bb 3c94 1b3d 1a14 973d
000000a0: 32cf 123d 6cb8 efbc 106c 63bc c1bc 54be
000000b0: 760d 143d cc98 0cbc 9265 30be 4406 e1bc
000000c0: 73a3 16be f4cb 0dbd 234e 8cbd a22d 813b
000000d0: d6e5 78bd a02a c2bd 6e5d 0b3c 5816 0abc
000000e0: b51e 99bd 1765 5fbc 30b1 94bd 900c cb3b
000000f0: 5f36 933d 1ed5 62bd ea72 dfbc f0e6 ec3d
00000100: d707 6a3e fc90 433d ae54 0ebc c089 c639
00000110: 90c8 b63d 10af 7e3d 9d6a f73d 3879 2f3e
00000120: 5643 593d 4b5d 013c 9ae8 b6bc 58e8 4abc
00000130: 1aa5 c23d e34e 763d e484 52be 08ed 163e
00000140: 6b3a 5cbd ca3b 0cbd cc79 0abb 9c8b df3d
00000150: ccfc f73d 7268 ac3c 80a2 c3ba fe01 ecbc
00000160: a246 c7bd 66d3 d13c b071 333d d685 bf3d
00000170: dd33 acbd 92bf 0c3d e866 e1bc de82 a43d
00000180: d143 bdbc 5b80 27bd 6011 103c d4d3 be3c
00000190: 768f da3d 364f 41bd d082 df3c 7aee 4d3d
000001a0: 8f1f 9b3d d78d 32bb 40ed 863d 104a e4bc
000001b0: bc84 e03c 5b7b 51bd 247d 7cbb d4b0 1a3d
000001c0: 316f 2fbd e42f 0abd 1c1c 0f3d bb68 1e3d
000001d0: dd6a 93bc d201 03bc 9e70 f53c 3dc3 0e3d
000001e0: ab77 8d3c 67d1 b63b 76fb 743d 9206 e93c
000001f0: ca07 403e da19 bebd bd8f 04bd b5de 90be
00000200: 3411 03bd c0d2 e23c d40c 37bd 3812 2dbb
00000210: 387d 0abd 707a 2cbd c8b9 98bd 3f0e f5bb
00000220: 59d6 96bd 6d76 56bc 9564 283d eed6 51bd
00000230: c841 70bd c62d e1bd 1a07 2b3e 32c1 cabd
00000240: 4c2a 96bd dffb d73d c6d2 20bd 22b4 83bd
00000250: e3b7 56be 5be0 b2bd 980f ae3c 3b7e 18bd
00000260: b732 553c 8260 6bbd c023 56bd 3870 68bd
00000270: cbdc ea3d 3642 dbbd 08e6 53bc 7438 7abd
00000280: 1001 2b3e 86a7 8a3d c738 d4bd ba81 dc3c
00000290: 7412 0cbd 35a4 15be b2fc bebd 8087 1ebd
000002a0: bd3f 45bd 83f0 efbc e084 89bb 503e 7ebd
000002b0: d96f 3ebd 1d0b f2bd 0ebd a3bc 145e 08bd
000002c0: d5a9 8abc 65df 24bd f422 febc 991e 0dbd
000002d0: 61dd c33b c3b0 bb3c c260 25bd ce3f 04bd
000002e0: d5a9 24bd 9674 ae3d 7e05 a9bb 6cef bebd
000002f0: fa3c 51bd 45ce 57bc e41e e33a 0602 203e
00000300: 58c3 a53d f993 673d ae8c 2f3d 6be4 a73d
00000310: 66bb a13b acd0 55bd 46c5 813d 0ef3 9e3d
00000320: 96a0 353d fd2d 603e 40a6 7abb 246a b6bd
00000330: f830 9d3c 3e37 d13d 7d27 82bd 1efb 293e
00000340: 53a8 863d f3fd 8bbd 5f7e 0d3c 030b 733d
00000350: 92f1 1a3e da3f 3c3d 03e2 5fbd e933 513d
00000360: 40a5 d33c b514 eb3c 7fcf 3e3d 53e5 edbc
00000370: 149d 95bd f6d7 9f3c 8c27 2e3e 8c26 823d
00000380: 7e1d af3c 28a8 a5bd 1cb7 573d 41ee a03d
00000390: 6319 913d 3d47 ef3d ad51 7c3d c11e 413e
000003a0: 37a3 3f3d d7f1 d33d f6f9 353e cc9c 17bd
000003b0: ff57 ed3c e24f cd3d 912e 4bbd 83ab f4bc
000003c0: e71c e73c 17e0 113d 3e6f 183c 159b fabc
000003d0: 58d2 c93b 73f3 76bd 1190 5f3c 5309 a93c
000003e0: c4d9 b23c 1871 6c3c 044a a33d e0ed 9e3d
000003f0: 02bb f03d def4 7abd 1c95 1ebb 2496 4f3d
0.15674013 -0.0711796 -0.033150565 0.057659872 0.0959669 0.00089147687 0.029089795 -0.023503114
-0.042718023 -0.026891965 -0.10844025 -0.026157014 0.015569594 0.035608374 -0.18938693 -0.08135559
0.011089491 -0.06919992 -0.012549301 0.07449474 -0.06983262 -0.0494586 0.014874625 0.02016712
-0.03221614 0.051951416 0.122877136 0.015818492 -0.108308345 -0.05514495 0.14765158 0.05551266
-0.01252154 -0.086743556 0.042563524 0.029975936 0.21325211 -0.005478887 0.037983164 0.07376881
0.035842128 -0.029262744 -0.013880745 -0.20775129 0.03614565 -0.0085813515 -0.17226246 -0.027468808
-0.14710788 -0.034618333 -0.06850841 0.0039422074 -0.060766064 -0.09480786 0.008506162 -0.008428179
-0.0747656 -0.013634942 -0.07260358 0.006196566 0.07188105 -0.055379026 -0.027276475 0.11567485
0.22854553 0.04774569 -0.008687181 0.00037868135 0.08924973 0.06217867 0.12080882 0.17136085
0.053042732 0.007895778 -0.02232771 -0.012384497 0.09504147 0.060133826 -0.20558506 0.14738858
-0.05376665 -0.034236707 -0.0021129726 0.109153 0.12108764 0.021045897 -0.0014925748 -0.028809544
-0.09730269 0.025613498 0.043809593 0.09351699 -0.0840833 0.034362383 -0.02751489 0.080327734
-0.023103626 -0.040893894 0.008793205 0.023294367 0.10671894 -0.047194682 0.027284056 0.050276257
0.07574379 -0.0027245188 0.065882206 -0.027867347 0.027407043 -0.05114303 -0.0038526738 0.037766293
-0.04283065 -0.03373708 0.034938917 0.038674098 -0.017995292 -0.007996039 0.029960927 0.034854162
0.017268976 0.005579162 0.059810124 0.028445516 0.18752971 -0.092822745 -0.032363642 -0.28294912
-0.031998828 0.027688384 -0.04468997 -0.0026408564 -0.033810824 -0.042108953 -0.0745731 -0.007478505
-0.07365102 -0.013089758 0.041111547 -0.051230364 -0.058656484 -0.10995059 0.16701928 -0.0990013
-0.07332286 0.105460875 -0.03926351 -0.06430842 -0.20968585 -0.08734199 0.02124767 -0.037229758
0.01301258 -0.057465084 -0.052280188 -0.056747645 0.11467894 -0.10705988 -0.012933262 -0.061088994
0.16699624 0.06770234 -0.10362392 0.026917327 -0.034197286 -0.14613421 -0.093255416 -0.03870344
-0.04815649 -0.02928949 -0.004196748 -0.062071145 -0.046493385 -0.11818526 -0.01998761 -0.033292845
-0.016926685 -0.040252108 -0.031022526 -0.03445301 0.005977318 0.022911435 -0.04037548 -0.03228741
-0.040201027 0.08518331 -0.0051581254 -0.0932301 -0.051083542 -0.013171737 0.0017327932 0.15625772
0.080938995 0.056537602 0.042858772 0.08197864 0.0049356697 -0.052200958 0.06336455 0.07761203
0.0443426 0.21892543 -0.0038246065 -0.089069635 0.01918839 0.10215615 -0.06355188 0.165997
0.06575074 -0.06835546 0.008636086 0.059336673 0.15131214 0.04595933 -0.0546589 0.051074896
0.025835633 0.028696397 0.046584602 -0.029040014 -0.07305351 0.019512158 0.17007273 0.063550085
0.021376368 -0.08088714 0.05266486 0.07857943 0.0708492 0.116835095 0.06160133 0.18859388
0.046786513 0.10348862 0.17771134 -0.037014768 0.028972624 0.10025002 -0.049604956 -0.02986694
0.028212024 0.0356141 0.009303866 -0.030591527 0.006159108 -0.060290765 0.013645188 0.020634329
0.021832354 0.0144312605 0.07973102 0.07760215 0.11754419 -0.06126868 -0.0024197763 0.050680295

momentum_buffer f4 [32]
00000000: 17e7 94bb 94e8 5fba c9dc 6cbb d844 fd38
00000010: befe b939 7e0b b63a c8c6 75ba 3c2b 96bb
00000020: 04ab a2ba 454b 45bb b3d3 adbb 8691 81bb
00000030: 09ba a5b9 1506 033b a129 a7bb 257d 9c3b
00000040: c93f a4ba 7376 9839 314a b53a 13c2 a1b9
00000050: d253 85bb 9331 9d39 abef a43b a7dd 9bba
00000060: 3d94 91bb 879d 143b 0450 9e3b e383 a1bb
00000070: 6df6 58ba 1f65 0b3b 5a2d e938 076b 7aba
-0.0045441496 -0.0008541432 -0.003614234 0.00012076803 0.00035475747 0.0013888923 -0.0009375629 -0.0045827907
-0.0012410586 -0.0030104679 -0.0053047775 -0.0039541153 -0.0003160986 0.001999264 -0.005101398 0.0047756606
-0.0012531216 0.0002907995 0.0013831315 -0.0003085291 -0.00406883 0.0002998231 0.0050334535 -0.0011891619
-0.00444272 0.0022676901 0.004831316 -0.004929052 -0.00082764664 0.002126999 0.00011118753 -0.00095526915
