other methods/models/MLP_random_seed_456/gut_16s/model_Race.pth (torch, 171709 bytes, 28 tensors)

genenet_fcs.0.weight f4 [64, 96]
00000000: fa67 66bc 6fdb 143d d5e3 e8bc 26e5 22bd
00000010: f246 403d 391b 81bc 1162 eebb eb7f 31bb
00000020: 6263 4bbd 420b 7d3d 212b 12bd c192 6f3c
00000030: 498c 2e3d ea47 e0bc e202 c1bb b549 aebb
00000040: e9d9 bbbc daa6 c1bc 4940 31bd faa7 7a3d
00000050: 0b2d 1dbd b5de 30bc 86c4 3d3c 2501 4abc
00000060: d06c 0d3d 80ab 663d 4fc9 90bb 7553 1aba
00000070: bed4 61bc e1d3 d9bc ca16 6f3d 7a98 9e3c
00000080: 8543 853c 9896 103d 89af bcbc 2d18 443c
00000090: e5e4 93bc a247 2f3d d542 5cbd 6824 09bc
000000a0: 0d8d 9cbb 82ab ccbd 5dda 763c a104 a63c
000000b0: 5071 9a3c 5e98 f3bc 7906 9ebd 6fd2 f63b
000000c0: 6a27 debc fab8 2ebd 9917 93bc 835e 2eba
000000d0: 72d8 fa3c 727c b03c a438 433d d5e8 1a3c
000000e0: 086f c1bd bf74 c43a 178b f4bd ab1d b83c
000000f0: 4594 7a3d a826 90bd 7a5b a4bc 6f10 02bc
00000100: fa05 29bd 8d65 89bd 240b 293c 9683 85bc
00000110: 175e 883d 2fef fe3c 8257 9ebc b3ed bf3d
00000120: b889 bf3d ee4f c8bc 855d d8bc 0e08 0c3c
00000130: 1382 b53d 8449 1abe 7c24 573d 0a07 1abd
00000140: 1de9 11bb 9d2e 72bd 20e3 cc3d 0c76 55bd
00000150: 996f 5ebc 72a6 a83c 3655 5cbd 2341 cdbc
00000160: 517f 4ebd c0ad 01be e59c d2bc 671d 04bd
00000170: 9ca0 c6bb 5673 7ebc 8dd1 b3bc 68e6 e4bb
00000180: 4c1c 983c db14 77bb 2fa0 2d3c 72c3 12bd
00000190: f5fc 96bc 8504 543c 8032 a53c 5d9e eb3b
000001a0: b92f d93c 216c f9bb 5b6c 8e3c 7514 6ebc
000001b0: 622f 16bc f9b4 593c e350 bfbc 7d30 07bd
000001c0: 6653 f1ba 9df5 f73a 423a 9d3c 8773 0a3c
000001d0: a28c 803c 8361 7f3b 5615 94bc b054 593c
000001e0: 7482 8cbc 132d d03c c4e8 f1bc 7ef9 c8bc
000001f0: da59 5c3c d2f4 d3bb 2a2e 013d fc77 9f3c
00000200: 9962 a0bc c671 013d f060 0eba 539d d4bc
00000210: 1c11 1c3c 2724 97bc 864c 2ebc 4751 1f3d
00000220: c3a2 803c 5381 cfbc e7c4 ce3c bde2 a03c
00000230: 76e1 323d 82a8 92bc 742a 64bd c45e d1bc
00000240: 08a3 fd3a 94ff b03c bfcf 033c 233d fcbc
00000250: e821 0a3d 7911 05be 5607 0cbe b1c7 893c
00000260: 3f89 633d 9818 153d 0cf0 dabd 15b1 d43c
00000270: 5e9e 3c3d 51d9 c53c 247a b33c 0ed7 22be
00000280: 6a63 aebd 342a bfbb c4ab 86bc d8b2 afbb
00000290: 78c4 ca3d 2f0b 5d3d cbac b93d cad0 07bd
000002a0: 12d8 f6bc 1641 f1ba 6f41 2abb 52a3 5b3c
000002b0: f9b2 5fbd 0d8c 343d 1afc 92bb 817d 243d
000002c0: 5de7 babb 9b47 333d b82e 1abd bab4 e63a
000002d0: 1a7f 153d c09b dc3c 93e1 4d3c b227 083b
000002e0: 84e1 ba3c b01d 1cbd 7488 25bd 55fd 793c
000002f0: 8c52 28bb 11eb 673d bc59 05bb d57b 163c
00000300: 0b7b a7bc 9093 9e3c d79f 05bd b6cc 8c3a
00000310: 5d5c fdbc 8cc3 263c 89c1 18bc 2ce9 1bbc
00000320: d03b 9abc 4a69 353c 43d0 1ebd 6057 48bb
00000330: 0bd9 a73c 837a f3bc 79d4 e0bb 2969 f8bc
00000340: 11bc 2b3c b916 e5bc c992 e9ba 2afc d03b
00000350: 1bf6 e4bc ebc4 ecbc 8d6f dfbb 1b69 f2bc
00000360: b38a c33c 3ac0 76bc 59f2 b0ba b878 abbc
00000370: c21d c6bb 381d 05bd 7c74 15bc f95d 78bc
00000380: 22d6 933c f9f7 0d3b e991 8abc 8cda dbbb
00000390: 3f5f 10bd ee63 e43c 732d 4b3c 193d d73c
000003a0: 878d 8dbc c12f 163d 3d07 7c3c ad93 84bd
000003b0: 1943 50bd 39fa 8d3d a6b4 8f3b 4e19 cfbc
000003c0: 2001 01bb d48a 18bd fb59 20bd 9fe3 10bd
000003d0: bbcb f83c 10be b93d 76a7 d5bd 5dfe e0bc
000003e0: 6faf 9e3d 4479 fbb9 c594 97ba 3525 e7bd
000003f0: b6dd 2ebd 8bab 9f3d 7add de3c dd8e b43c
-0.014062876 0.03634208 -0.028428951 -0.039769314 0.04694266 -0.015760051 -0.007274874 -0.0027084302
-0.049655326 0.061778314 -0.035685662 0.014622391 0.042614255 -0.027378041 -0.0058902362 -0.005318845
-0.022931056 -0.023639131 -0.043274198 0.06119535 -0.038373034 -0.010795285 0.011582499 -0.012329374
0.0345276 0.0563159 -0.004418529 -0.000588707 -0.013783632 -0.02659029 0.058371343 0.019359816
0.016267547 0.035299867 -0.02303292 0.011968655 -0.018053481 0.042792924 -0.053774673 -0.008370496
-0.0047775568 -0.0999365 0.01506671 0.02026588 0.01885286 -0.02973574 -0.07716078 0.00753241
-0.027118403 -0.042656876 -0.017955588 -0.00066516566 0.030620787 0.021543715 0.04766144 0.009454926
-0.09445006 0.0014988406 -0.11940592 0.022475084 0.061176557 -0.07038623 -0.02006315 -0.007938488
-0.041265465 -0.067088224 0.010317598 -0.016298097 0.06658571 0.031119911 -0.019328836 0.093715094
0.0935244 -0.024452176 -0.026411781 0.008546842 0.088627 -0.15067106 0.05252503 -0.03760437
-0.002226419 -0.059126485 0.10004258 -0.05211453 -0.013576412 0.02058718 -0.0537922 -0.025055474
-0.050414387 -0.12663937 -0.025709579 -0.032254603 -0.0060616266 -0.015530428 -0.021950508 -0.0069854744
0.01856818 -0.003770164 0.010597273 -0.035830922 -0.018431166 0.012940531 0.020165682 0.0071905092
0.026512014 -0.007611767 0.017385652 -0.0145312445 -0.00916657 0.013287776 -0.023354 -0.033005226
-0.0018411695 0.0018917803 0.019192819 0.008450395 0.015692059 0.0038968034 -0.01807658 0.01326482
-0.017152049 0.025412118 -0.029529937 -0.02453303 0.013449157 -0.006468394 0.031538166 0.019466393
-0.019578265 0.031602643 -0.0005431315 -0.025953924 0.009525564 -0.018449856 -0.010638362 0.03889587
0.01570261 -0.025330221 0.025240375 0.019639367 0.043672048 -0.017902616 -0.05570455 -0.025557883
0.0019350955 0.021606244 0.008045136 -0.030790871 0.03372374 -0.12994947 -0.13674673 0.016818853
0.05555081 0.036400408 -0.106903166 0.025963346 0.04604947 0.024151476 0.021908827 -0.1590235
-0.085150555 -0.0058338884 -0.016439326 -0.005361896 0.09900755 0.053965744 0.09066161 -0.0331581
-0.030132327 -0.0018406238 -0.0025978943 0.013405638 -0.05461404 0.044078875 -0.0044856193 0.040158752
-0.00570385 0.04376946 -0.03764221 0.0017601468 0.036498167 0.026929736 0.012565988 0.0020775613
0.022812612 -0.03811425 -0.040413335 0.015258153 -0.0025683967 0.05662066 -0.0020347675 0.009184797
-0.020444414 0.019357473 -0.03262314 0.0010742161 -0.030927831 0.010178458 -0.009323486 -0.009516042
-0.018827349 0.011072466 -0.038772833 -0.0030569658 0.020489236 -0.029721504 -0.006861266 -0.030323582
0.01048185 -0.027964937 -0.0017820235 0.0063777165 -0.027949383 -0.028902492 -0.006818718 -0.029591134
0.023869848 -0.015060479 -0.001349996 -0.020931587 -0.006046028 -0.03249857 -0.00912201 -0.015159124
0.018046442 0.0021662696 -0.016915279 -0.0067094024 -0.035247084 0.027879681 0.012400973 0.02627425
-0.0172794 0.036666635 0.015382585 -0.064734794 -0.05084524 0.06932492 0.0043855486 -0.02528062
-0.0019684508 -0.03724177 -0.039148312 -0.035373326 0.030370584 0.09069455 -0.10432331 -0.02746504
0.07748305 -0.000479648 -0.0011564723 -0.112863936 -0.04269191 0.07796391 0.027205218 0.022040779

genenet_fcs.0.bias f4 [64]
00000000: 9934 0ebc 711b 9739 58dd 6f3a 94f6 8bbb
00000010: 745c f8bb 9330 84bb acba da3b 08ed 443a
00000020: 0e96 063b 1bbd 5f3b e07b eebb 1df9 1b3a
00000030: 437b 00bc 60b9 00bb 52d1 213c 2f56 d33b
00000040: 07cc 153c b181 173c 435c 07bc 8150 5ebb
00000050: e167 09bc 8316 2fbb 85ba d6bb c20e 27bc
00000060: b8dd 16bb 3c56 d43b 3eca 2a3c 0f56 15bc
00000070: 73ee 803b 9578 d43b bc88 8f3b 16a6 aabb
00000080: ddef 2bbc 510b f3bb 3ef8 10bc b532 88ba
00000090: 23db f0bb 8732 f9ba ad33 ee3b be74 203c
000000a0: 86a5 d13b 90a1 c23b 7056 df3b b75b f83b
000000b0: 624f 99bb c2a9 05bc 3393 12bc 6125 06bc
000000c0: 80fa 0339 d6b3 b13b 05a7 0ebc 5fa8 853b
000000d0: 462a 87bb 55f1 01bc c538 dfbb 4d57 293c
000000e0: 4e98 edbb 5f1a 7cbb 04e2 5f3a 3b32 073c
000000f0: 75fb e0bb e1f4 903b 5ca7 05bc e11c 8f3b
-0.008679532 0.0002882141 0.0009150109 -0.0042713378 -0.0075793806 -0.004034111 0.006675085 0.0007512127
0.0020536217 0.0034139815 -0.0072779506 0.00059499015 -0.007841888 -0.0019641742 0.009876566 0.006449483
0.009142882 0.009247229 -0.008261743 -0.0033922496 -0.008386583 -0.00267163 -0.0065529966 -0.01019639
-0.0023020338 0.0064800065 0.010424195 -0.009114756 0.0039346754 0.006484101 0.0043803137 -0.0052077873
-0.0104942 -0.0074171205 -0.008848248 -0.0010391088 -0.007350342 -0.0019012251 0.007269344 0.0097934585
0.0063979058 0.00593967 0.006815724 0.0075792926 -0.0046786526 -0.008158149 -0.008946228 -0.008187623
0.00012586452 0.0054230494 -0.008706813 0.0040789093 -0.0041249124 -0.007931073 -0.0068121874 0.010335756
-0.007250822 -0.0038467867 0.0008540454 0.008251722 -0.0068659135 0.004423723 -0.008157577 0.0043674563

genenet_fcs.1.weight f4 [64]
00000000: 3d39 433e 3831 2d3e 0b7c 153e 272d 223e
00000010: 1200 3b3e 9108 223e effb 333e 4bdb 273e
00000020: 02b4 333e f475 923d eb70 233e dde7 303e
00000030: 4eba 313e 590d 1a3e 54ee 1f3e 4037 0f3e
00000040: 8ed9 463e 6620 273e 5da2 f43d 0d3a 2b3e
00000050: 06b2 043e 9f92 2d3e 761b 233e f9bd 2c3e
00000060: d334 2a3e 0f52 093e 00e4 133e a3bd 3b3e
00000070: e46f 133e 6778 043e eedb 1d3e 84ff 283e
00000080: e6e3 013e b402 353e b79b 293e 64ea 073e
00000090: 2188 1a3e faae 0e3e ed55 0d3e ad5e c83d
000000a0: 8c05 9e3d aae1 373e 91ed 013e 6083 0a3e
000000b0: d1d9 243e af34 f03d c310 223e 2ab4 383e
000000c0: 4560 1b3e 63df 303e 05e0 2f3e 3125 163e
000000d0: 6674 ef3d d6ad fc3d 1744 363e 5af0 0b3e
000000e0: 2b1d 0f3e e55d ef3d e4a6 c83d b242 093e
000000f0: 2160 283d 98d6 3f3e 9f00 1a3e a611 1e3e
0.19064803 0.16913307 0.145981 0.15837537 0.18261746 0.1582358 0.17576574 0.16392247
0.17549136 0.07151404 0.15961044 0.17275949 0.17356226 0.15044154 0.15618259 0.1398592
0.19418928 0.16320953 0.11945031 0.16721363 0.12958536 0.16950463 0.15928444 0.16869344
0.16621713 0.13410209 0.14442444 0.1833406 0.14398152 0.12936555 0.15415928 0.16503721
0.12684593 0.17676812 0.16563307 0.13273007 0.15090992 0.13933936 0.1380231 0.09783683
0.07715902 0.17957178 0.1268828 0.13526678 0.16098715 0.117287986 0.15826707 0.18037477
0.15173443 0.17272715 0.171753 0.14662625 0.11692123 0.12337844 0.17799412 0.13665906
0.1397597 0.11687831 0.09797457 0.13404348 0.0411073 0.18734205 0.150393 0.1543642

genenet_fcs.1.bias f4 [64]
00000000: b86c 00be d678 dabd 2059 d7bd 3e00 e3bd
00000010: 659b 16be 4535 d1bd 204a a8bd a86e adbd
00000020: 4d22 0cbe 4bac 8dbc e039 b8bd 2dc9 ddbd
00000030: 02ff 0abe be0c 0abe a810 34bd caab 84bd
00000040: e62b c3bd fcad 90bd c95c d2bc 0f78 a3bd
00000050: fd53 c7bd aeb2 a5bd dd48 93bd 41e1 c7bd
00000060: 7dca fbbd 6ad8 71bd f28b d7bd 8c74 02be
00000070: 3371 96bd 34e1 cabd bda6 c1bd c2b8 0cbe
00000080: ceab 41bd d2ea ecbd fcb2 b2bd 5480 1dbe
00000090: c2fc a1bd 7581 aebd e120 08be 1533 21bd
000000a0: 4785 e9bb 9edb d0bd 63a7 15bd 76eb 61bd
000000b0: 00a5 c5bd cd16 a5bd 0170 5abd b36b d8bd
000000c0: 6de2 00be 1491 cfbd 7e42 fcbd 7807 9dbd
000000d0: 80ba 0bbd e679 07bd fe78 d6bd 2f53 66bd
000000e0: 1634 9abd 2312 fabc a075 0abd 0253 89bd
000000f0: b99c d9bd 21b6 d8bd 48ab b7bd d894 09be
-0.12541473 -0.10667579 -0.10515046 -0.110840306 -0.14707716 -0.102152385 -0.08217263 -0.08468372
-0.1368496 -0.01729407 -0.08995414 -0.10829387 -0.1357384 -0.13481423 -0.043961197 -0.06478079
-0.09529857 -0.07064435 -0.025679009 -0.07981884 -0.09732816 -0.08090721 -0.07191632 -0.09759761
-0.12294481 -0.05904428 -0.10524739 -0.12739772 -0.0734581 -0.09906235 -0.09455631 -0.13742355
-0.047282986 -0.11568226 -0.08725545 -0.15380985 -0.07909538 -0.08520786 -0.13293792 -0.039355356
-0.0071264836 -0.10198139 -0.036536586 -0.055156194 -0.09650612 -0.080609895 -0.05332947 -0.10567417
-0.12586375 -0.10135093 -0.1231737 -0.0766744 -0.034113407 -0.033075236 -0.10472296 -0.056231674
-0.07529466 -0.030526226 -0.033803582 -0.067052856 -0.106255956 -0.10581613 -0.08968216 -0.13435686

genenet_fcs.1.running_mean f4 [64]
00000000: c3d2 cc3c e57e 2b3c c774 a6bd 795f 063d
00000010: fe7e c4bd 4a88 e1bd e25b f8bd c468 37be
00000020: 7b43 d83c 5a4d c1bd 329a 2e3d ce16 90bd
00000030: 4117 2c3d d9f6 683b 10b4 513e 938b 303d
00000040: 6f8e 78bd 59d7 23bd 4d53 b6bd 08a0 bf3d
00000050: 45e0 0d3b 7bb1 0e3b 0216 fbbc 587e d23d
00000060: e32c 5cbd 79c4 6bbc d27e 0b3d cbdf b8bd
00000070: 1e2a 68bd 881e 023e 8a10 973d 5a3f 4b3d
00000080: f550 8abd 092d 3ebc 66fd ddbd 0849 d7bd
00000090: 3f49 cfbc b4a7 11be a972 e9bd 9996 a4bd
000000a0: 71ad 843c 41c7 913d 9a8e cbbc b465 e43d
000000b0: b652 813d 1ab8 243d 1688 1e3e ae3d a93d
000000c0: 02dd 8a3c 42be d4bd 3189 87bd 4f5d 88bd
000000d0: 6f96 89bd c3fb c8bd 8cea 3e3c f821 c63c
000000e0: 1e48 b5bd db77 0a3e 009f 22be 5524 5a3d
000000f0: e1bb 39bd 0dea 18bc d5eb fabd 2a87 9cbc
0.025002843 0.010467266 -0.08127742 0.032805894 -0.09594534 -0.11012323 -0.121269 -0.17911059
0.026399365 -0.09438582 0.04262752 -0.070356 0.042014364 0.0035547523 0.20478845 0.04310186
-0.06068271 -0.040000293 -0.08902607 0.093566954 0.0021648568 0.0021773267 -0.030650143 0.102780044
-0.053753745 -0.014390104 0.034056492 -0.0902706 -0.05668079 0.12706959 0.073762015 0.049620964
-0.067537226 -0.011607417 -0.108393475 -0.105119765 -0.025303481 -0.1422413 -0.11398823 -0.08036537
0.016195985 0.07118083 -0.024848271 0.11152211 0.06314604 0.040214635 0.154816 0.082637176
0.016951088 -0.10387851 -0.06617964 -0.06658422 -0.06718146 -0.09813645 0.0116526 0.02418612
-0.08851646 0.13522284 -0.15880966 0.053257305 -0.04534519 -0.009333146 -0.12252013 -0.01910742

genenet_fcs.1.running_var f4 [64]
00000000: 1b73 453e 80ca 383e e634 883e 901c 673e
00000010: 715c 463e cec2 1c3e ea6c 8b3e dfc1 ad3e
00000020: ee64 593e c9a2 793e 368b 343e da1d 693e
00000030: ad03 593e eccb 233e 128e 093f c75b 373e
00000040: 46ae 3d3e b258 8a3e d95b 073e 36e5 4d3e
00000050: be15 823e d2e4 283e 8e50 413e f9ab 433e
00000060: e3be 223e 9569 323e 8e73 403e 66b3 4e3e
00000070: 8fdc 373e 5f78 a63e 8252 6c3e cc56 273e
00000080: a794 933e 407f 493e 29f2 453e 368f a13e
00000090: 98c3 6c3e be8f 873e 6597 0d3e fc1c 1c3e
000000a0: df01 993e a742 773e b02b dc3d 282b 0d3e
000000b0: 43ff 2b3e 3bde 4c3e 5ace 5a3e 74cb 7c3e
000000c0: e41d 0a3f ae1c 813e 6280 103e 82ed 303e
000000d0: 1f7b 043e c8cf 233e 9c39 733e 0139 f13d
000000e0: 0689 843e 8d60 0b3e 30dd 193f 2a2e 133e
000000f0: e01c 5e3e 6aec 523e 2cda 713e a1c7 063e
0.1928219 0.18045998 0.26602858 0.2256949 0.19371201 0.15308687 0.27231532 0.33936974
0.21229908 0.24378504 0.1763123 0.22765294 0.21192808 0.15995759 0.5373241 0.17906104
0.18523511 0.27020794 0.13218631 0.20106968 0.25407213 0.16493538 0.18878385 0.19108571
0.1589313 0.17423089 0.1879408 0.20185623 0.1795523 0.3251371 0.23078349 0.16341704
0.2882435 0.19677448 0.19330658 0.31554574 0.23121488 0.26476854 0.13827284 0.15245432
0.2988424 0.2414652 0.1075052 0.13785994 0.16796593 0.20006649 0.2136778 0.24686986
0.5395186 0.25217193 0.14111474 0.17278102 0.12937592 0.15997231 0.23752445 0.11778451
0.2588579 0.1361105 0.6010313 0.14373079 0.21690702 0.20597997 0.23618382 0.1316209

genenet_fcs.4.weight f4 [32, 64]
00000000: 9bbb e7bb 2274 e0bc a8ee 073c b218 f9bc
00000010: 83b2 463d e665 1b3d d5b3 c33c 7c71 673d
00000020: 0517 f13b 55fd 4d3c 886a 483b 4172 94bc
00000030: c18a cd3c 3cce b6bc 1a39 96bc 4dff a5bc
00000040: 28b2 e93b 44bb 963a 2d11 473d acb0 d2bc
00000050: e66f 853a 21ae 48bd a92a 4b3b 145f c9bc
00000060: 9ee3 a13c 7d54 8fbb 08e2 78bc 936b aabc
00000070: 772c 423c 186c a3bc b790 a9bc 2db5 89bc
00000080: 848c 813d 877f 593c 3fa6 5c3d d323 9c3c
00000090: aeee 373b a8bf b33c 1cbe 263c 5768 d33c
000000a0: 353a a03b e046 a7bc d204 613d f43e 84bc
000000b0: 2ba9 adbc 3a72 cbbc 3210 aabc 47b9 83bc
000000c0: 203d d43b afea 933c 2cd6 b53c cb0d 563b
000000d0: eae8 1b3d ca94 3f3d 4b6f 1c3b a99d 15bb
000000e0: 797c 093d 5b7a 1bbd b40b 793c d702 b0bc
000000f0: fda1 3f3c 563b cb3c 2ae3 eebb d240 d13c
00000100: e082 493d e0ad 273d 7016 37bd a1eb 5abc
00000110: 6121 f3bc 0327 94bc 5caf 8abc 175d 85bb
00000120: 3537 383d 07fb a2b9 089f f43c 7fd7 2ebd
00000130: b33f 083d 4b31 5cbc b93d b13b 4f37 213d
00000140: 72a9 48bd 8a19 03bd fabc a43c 0a0d f2bc
00000150: 63d7 75bc dd3b 56bd 4868 b0bc 464d c43c
00000160: 7697 d8bc 2ee4 f6bc 0597 3b3a b55b 37bd
00000170: 0cf1 fabc 03a4 fdbc 24d8 303c e0b4 443d
00000180: 1501 fe3b bb4b 253d 8473 693b 1b41 da3c
00000190: f637 29bd f802 a0bb 850f a2bc 7d36 7ebb
000001a0: a85f ac3b 8fe6 d3bc 1485 a43b e47c aa3c
000001b0: e529 21bd a00e c4bc e21c 3b3c b2c5 e53c
000001c0: d986 003d e6ee 2bbd a7bf b5bc 1f9e 1bbd
000001d0: dde1 d83b bc78 e03c af80 303d d482 35bd
000001e0: 3e90 8bbb 7428 25bd ff19 173c 41a4 28bd
000001f0: 91ee 08bb e98f 3d3d f732 41bd 87cb f6bc
00000200: 7859 aabc a24f 94ba ebcf 7e3b f11e 1b3d
00000210: 13a3 81bc bb1c 63bc d884 adbc d586 2bbd
00000220: b06e d2bc a18a cdbc 5bd3 bcbc 8865 d43c
00000230: 78a3 56bc ef25 a0bc a878 b93c 83da 9dbc
00000240: 6b9f 95bc 687c a7bc 04d1 01bd 5a20 cd3b
00000250: f5a9 13bd 3817 b63c 71d9 99bc 9c37 5abc
00000260: 2641 15bc cb7c 8dbb b416 fb3c 7834 a53c
00000270: 8ede a8bc 5fdd 1c3d eff6 c3bc d5a3 dbbc
00000280: 2478 b2bc 1400 51bc 97c2 05bd a4ab ddbc
00000290: f7c8 3dbc 5c6d e9bc d5aa f5bc 3489 a2bc
000002a0: 7a58 0fbd 5478 e2bc 14c8 bdbc 9d8a ccbc
000002b0: 3e9d 65bb 79d2 2e3d 92d6 963c 3ca9 b53c
000002c0: e33b 5dbc 7e32 673c c542 6ebc f71a 5c3c
000002d0: ca43 f8bc c0f8 e6bc feda c3ba ba7c 7fbb
000002e0: 815f 09bd aa16 b63c 28ce c7bc 0571 cd3c
000002f0: f76c 14bc b542 bfbc 9ac0 2cbc 2419 673b
00000300: 1bdc cb3c e291 f7bc ed28 69bc b8ba 3bbc
00000310: 3cf6 143d 6918 fb3c 8673 9e3c fe1e 6d3d
00000320: d05b f83c c2e2 bf3c 6ec6 213c a874 85bb
00000330: 6871 323d f9a1 e6bc 479a a0bc 2a70 35bc
00000340: 5f45 ffb9 dd7b 953a a962 4b3d 7c29 d4bc
00000350: a45e e8bc 6118 e5bc da44 8d3b 4407 3abc
00000360: b2fd bf3c 8344 1b3b 9c4e 0dbc a537 40bb
00000370: 87f4 f5bb 86de a6bc 553c 43bc a9ab b03b
00000380: 4aa7 833d ab81 f13c ee05 693d 9a8e 153d
00000390: da48 70bc ad4d 303d d8bf 003b 090b 843d
000003a0: b49d 2f3c 2e39 9dbc 67bd 4d3d 656b a1bb
000003b0: 5026 c4bc 62ff 55bc bbcc b43a 37ef f3bb
000003c0: 0d3e 393c 75c2 6d3c 5f82 d43b dbef b4bb
000003d0: ce2f 543d 2a94 863d 539c 2dbb 04d1 fdbb
000003e0: cd79 643d 64cd d6bc a835 e43c 7b6a dcbb
000003f0: b539 2a3c d21b 3c3d 4410 5c3a de90 023d
-0.007071925 -0.027399126 0.008296646 -0.030407283 0.048510086 0.037938975 0.023889462 0.05650471
0.0073574805 0.012572606 0.0030581076 -0.018120887 0.025090577 -0.022315137 -0.018337775 -0.020263338
0.0071318336 0.0011499901 0.048600364 -0.02571901 0.0010180443 -0.048994187 0.003100077 -0.02458147
0.019761857 -0.0043740855 -0.015190609 -0.020803249 0.011851422 -0.019949004 -0.020698888 -0.016810024
0.06325629 0.013275034 0.053869482 0.019060051 0.0028065848 0.021941975 0.010177162 0.025806589
0.0048897513 -0.020419538 0.054936238 -0.0161433 -0.02119883 -0.02483474 -0.020759676 -0.016079558
0.006477013 0.018056242 0.022196852 0.003266203 0.03806392 0.046772756 0.0023870047 -0.0022829568
0.033565972 -0.037958484 0.015200544 -0.02148573 0.011696336 0.024808567 -0.0072902637 0.025543604
0.049197078 0.040937304 -0.044699132 -0.013361842 -0.029679002 -0.018085008 -0.016929321 -0.004069935
0.044974525 -0.00031086078 0.029860988 -0.04268598 0.033263873 -0.013439487 0.0054089692 0.039359387
-0.04898972 -0.032006778 0.020109642 -0.029547233 -0.0150049655 -0.052303184 -0.0215341 0.023962628
-0.02643941 -0.030138101 0.00071559876 -0.044765193 -0.030632518 -0.030961996 0.010793719 0.04802406
0.007751594 0.040355425 0.0035621831 0.026642373 -0.041313134 -0.0048831664 -0.01978279 -0.0038789802
0.0052604266 -0.025866775 0.005020747 0.020811506 -0.039346594 -0.023932755 0.01142046 0.02804837
0.0313786 -0.04197588 -0.022186114 -0.037992593 0.006618722 0.02740132 0.043091472 -0.04431422
-0.0042591384 -0.040321782 0.009222507 -0.04117227 -0.002089415 0.04627982 -0.047167744 -0.030126346
-0.020794615 -0.0011315236 0.0038881253 0.037871305 -0.01582483 -0.01386183 -0.021181509 -0.041876633
-0.025687546 -0.025090517 -0.02305 0.02592732 -0.013100497 -0.019549338 0.022640541 -0.019269234
-0.018264493 -0.020445064 -0.031693473 0.00625996 -0.036050756 0.022227868 -0.018780442 -0.013318922
-0.009109771 -0.004317855 0.030650474 0.02016662 -0.020613935 0.038297053 -0.023921458 -0.02681152
-0.021785803 -0.012756366 -0.03265628 -0.027059384 -0.011583558 -0.02849453 -0.029988686 -0.019840814
-0.034996487 -0.027645268 -0.023166694 -0.02496844 -0.003503635 0.04268119 0.018412862 0.022175424
-0.013503048 0.014111159 -0.014542286 0.013434163 -0.030305762 -0.028194785 -0.0014942584 -0.0038984255
-0.033538345 0.022227604 -0.024390295 0.025078306 -0.009059182 -0.023347238 -0.010543967 0.0035262788
0.024885228 -0.03022093 -0.014230949 -0.011458091 0.03636764 0.030651288 0.019342195 0.057890885
0.030317217 0.023423556 0.0098739695 -0.0040727444 0.043565184 -0.028153406 -0.019604815 -0.011074105
-0.00048689076 0.0011404712 0.049654637 -0.025898688 -0.02836544 -0.027965726 0.0043111863 -0.011354271
0.023436401 0.002369196 -0.008624699 -0.0029330042 -0.0075059566 -0.02036978 -0.01191624 0.0053915572
0.06428392 0.029480776 0.05689042 0.03651295 -0.014665807 0.043042827 0.0019645598 0.06447417
0.010718752 -0.019192304 0.050229456 -0.0049261325 -0.02394405 -0.013061376 0.0013793925 -0.007444288
0.011306298 0.014511694 0.006485268 -0.005521757 0.051803403 0.06571229 -0.0026490882 -0.007745864
0.05578022 -0.026220985 0.027857617 -0.0067265606 0.010389735 0.04592497 0.0008394758 0.031876437

genenet_fcs.4.bias f4 [32]
00000000: 682a 37bc 78b7 09bb c7ae 11bc a6c0 9b39
00000010: a8c9 643a 32ef 5f3b 2f2d 17bb ecb9 38bc
00000020: 971a 48bb 52b0 f2bb 86d3 55bc 0c62 1fbc
00000030: 8bdf 4bba e62b a13b bea1 4dbc e07f 403c
00000040: fd0a 4abb a18f 3b3a e9fe 5e3b 84f9 46ba
00000050: 7501 24bc d65e 413a d8e3 4a3c e1bb 3fbb
00000060: 4e14 33bc 82d0 b63b 88bd 423c 9dae 46bc
00000070: f472 05bb bd78 ab3b d758 8f39 6c03 1abb
-0.011179544 -0.0021013897 -0.008891768 0.00029707438 0.0008727559 0.003416967 -0.0023067703 -0.011274796
-0.0030533427 -0.007406273 -0.013050919 -0.009727966 -0.0007777146 0.004918563 -0.012550769 0.011749238
-0.0030829303 0.0007154886 0.003402645 -0.00075902813 -0.010010113 0.00073764974 0.012383424 -0.0029256272
-0.010930134 0.0055790553 0.011886008 -0.012126592 -0.0020362707 0.005232899 0.00027341276 -0.0023500575

genenet_fcs.5.weight f4 [32]
00000000: 28ee f63e dd7f ef3e 6319 f83e 83ef 0b3f
00000010: 861d 073f 8117 093f 610c 183f c906 0c3f
00000020: 28b6 023f 2b62 fd3e 9f24 113f 6ae8 0b3f
00000030: 9ace e43e 497d 003f 2afb fb3e 1727 f33e
00000040: 7793 103f 4ce7 fd3e 37ee e43e f39f 043f
00000050: 81e0 103f 952c 033f f468 073f 350b 113f
00000060: b4c4 063f 4687 023f 05a8 fe3e bd35 0a3f
00000070: a509 db3e 1287 dd3e 659e 113f 4d78 033f
0.48228574 0.4677724 0.4845687 0.5466234 0.52779424 0.5355149 0.5939389 0.54697853
0.510592 0.4948896 0.56696504 0.5465151 0.44688874 0.5019117 0.4921506 0.4749076
0.56475013 0.49590528 0.44712994 0.51806563 0.56592566 0.512399 0.5289452 0.56657726
0.52643895 0.5098766 0.49737564 0.5398825 0.42780796 0.43267113 0.56882316 0.5135544

genenet_fcs.5.bias f4 [32]
00000000: 7662 853e 3765 a93a 65eb 5abc 40ad 9f3e
00000010: a50d ff3d ae4e 823e 56be 573e 804a 0c3e
00000020: 18d9 bd3c 1d96 663c f952 893e d885 1c3e
00000030: 5538 a23d 989b a03d bd41 f63c a5f7 c43d
00000040: 3c69 853e 13b0 9d3c eeb8 bf3d 00b0 8a3e
00000050: 012a 043e ca6e 8c3e 6dfa 0c3e d676 063e
00000060: b539 983e 4101 603d 7c00 1d3d 848f 153e
00000070: 8792 cc3d 628a c33d 8733 5a3e d50e d33c
0.26051682 0.0012923841 -0.0133617865 0.31186867 0.12453774 0.25450653 0.21068701 0.13700294
0.023174807 0.014073876 0.26821116 0.15285432 0.07920901 0.07842177 0.030060643 0.09617547
0.2605685 0.019248998 0.093614444 0.27087402 0.12906648 0.27428275 0.13767405 0.1313127
0.29731527 0.054688696 0.03833054 0.14605528 0.099888854 0.09547879 0.21308719 0.025763908

genenet_fcs.5.running_mean f4 [32]
00000000: cf3c e5bb 6da5 54bc b867 9abc 652c 463c
00000010: fa5b 14bc 1a5f 3d3c 7792 f9bb 7a7e b1bc
00000020: 1bee c3bb fa9c 94bc ec01 66ba 4802 4dbc
00000030: 8cc3 923a 052b a73b 6e96 b9bc e07c 133c
00000040: f372 c83b 3328 17bc ff3f e73b 127d 603b
00000050: 6c82 83bc d476 e73b 003b 063c f006 40bc
00000060: fca1 0a3a 32bd a33b 01d5 193b 01a3 babc
00000070: 8074 213b 1354 f43b 4ca8 8cbb 41f6 8dbb
-0.0069957743 -0.012978894 -0.018848285 0.012095545 -0.009055132 0.0115583185 -0.007616337 -0.021666754
-0.005979312 -0.018141259 -0.000877409 -0.012512751 0.0011197194 0.005101564 -0.022654738 0.0090019405
0.0061172186 -0.009225893 0.0070571895 0.0034254235 -0.016053401 0.007063726 0.008192778 -0.011720404
0.000528842 0.004996919 0.0023472907 -0.022782804 0.002463609 0.0074563115 -0.0042925235 -0.0043323343

genenet_fcs.5.running_var f4 [32]
00000000: 5bf7 1c3a 4317 283a 2a44 e339 e177 3a3a
00000010: 7609 623a a390 783a 23b5 333a b65d 543a
00000020: 0714 0d3a f04f d039 dbfb 763a c4f1 043a
00000030: 34a4 1c3a 4768 023a 0f16 c939 ed25 013a
00000040: 0c53 743a eaf6 d839 af85 243a 96a0 213a
00000050: 6c5b 473a ac56 243a ac47 153a 345b 453a
00000060: 26f6 353a 2cc2 123a 51ee d339 451c 613a
00000070: 179b 063a 50c9 0c3a 1ecd 283a 517e 123a
0.00059877866 0.00064121577 0.000433476 0.00071132 0.00086226256 0.0009482002 0.00068552996 0.0008101122
0.00053817075 0.0003973241 0.00094216847 0.0005071426 0.0005975396 0.0004974645 0.00038354142 0.0004926611
0.0009320236 0.00041382696 0.0006276024 0.0006165592 0.00076048705 0.00062690186 0.0005694579 0.0007528544
0.0006941281 0.0005598392 0.00040422616 0.00085872813 0.00051348045 0.0005370574 0.0006439256 0.00055882806

genenet_fcs.8.weight f4 [10, 32]
00000000: a748 24be d7a2 ec3d 0785 713e f47b 2ebe
00000010: 8309 b53e 8322 ccbe 72ba 9cbc a9c6 c13e
00000020: 7f18 e3bd b419 4b3e a4e1 d3be acd3 d4bc
00000030: f3fd 82be 36c3 43be 2e6f 513e 3f1c 20bd
00000040: 58d1 cdbe 33ba 583e 42cc 84be c58d 14be
00000050: 199c 1e3e 9413 24be 3ba9 153c 2ae0 093e
00000060: f62b 25be 68a1 dabd af6d 973e 2ed3 bc3e
00000070: 1fa0 51be dbdc 63be c100 81bb 7735 bfbd
00000080: e85c 183e ffa6 963d 6c82 4dbe 99db 263e
00000090: 358c d1bd 0801 043e 6896 14be c39d e1bd
000000a0: c097 353d 78de 39be 98d6 063e 56af d23d
000000b0: 5f30 9f3d cd55 c33d dbbf 42be 65d5 f13d
000000c0: 2f52 193e 85d3 2dbe 810b 6d3d dc0b 1d3e
000000d0: bb3a 1ebe 6453 1d3e 9fda 053e e2f8 05be
000000e0: 8fec 303e 8a58 763d 1ae6 39be ac2f 0abe
000000f0: ffdb 943d f8d6 873d 4bc9 01be d4db f63c
00000100: 0a63 a53d e6c7 07be 91a2 fc3d d929 813d
00000110: cd42 43bd 6c19 ec3c 7b73 993e 06ed 72bb
00000120: 8c8e 41be 6810 223e 0304 6ebb f7f9 93be
00000130: d235 2b3e b0f3 21be fdd0 213e fc3b 56bd
00000140: 3e5d 9b3c b3ac 0d3e e6b3 233e 8e8a 6d3d
00000150: 3772 15bd 02f5 823d 7e45 87be 870c 1dbd
00000160: 2a4b 973d 2cbc 32be ddfd ba3d afac 4cbc
00000170: b3b7 213e 5c2b 2e3e 8c18 903e a860 2abe
00000180: 5dbe da3d bc02 3b3e d164 e23c 5d02 1b3e
00000190: a893 5d3e 18bc 5ebe 8552 99bd a071 653e
000001a0: cffe 01be 04ff c2bc cd36 81be 3fd1 203d
000001b0: 4f00 cdbd e0f2 0abe fc5b b8bc 1c2d 293e
000001c0: 31cb 7ebe 8b66 5b3c ccc5 01be 08e2 f53d
000001d0: 3a12 0cbe 2561 103e f0c2 c23d 88e0 18be
000001e0: 52ab 133e b94c f0bd 5d76 c43d a56c 683e
000001f0: 5ad1 fbbc 5c05 8ebd 1eb7 87bd c334 1dbe
00000200: 0f5b d5bd 5bc1 afbd d33b b73b 0684 07be
00000210: d4c3 60bd 7507 503d c714 0a3c 4a91 8cbd
00000220: 2d82 b63d bd92 843c b556 b43d d42c 183d
00000230: cba7 31bc 56d5 973d 5f06 873c b25b e0bd
00000240: eff6 a23d 2b7a 903c f627 503c e5ad 07be
00000250: db11 ea3d 734b ddbd b2fa 743c 1d5f ea3d
00000260: d868 0dbe a742 9d3d 1090 9bbc 19dc 92bd
00000270: cbb8 b0bc 065f 25bd 9a62 a0bc 3722 eb3d
00000280: d0e5 aebc 5003 33ba 0bb7 b5bd f527 a4bb
00000290: 35d4 b8bd 34c5 f43d d8db d9bd 973e d3bd
000002a0: 21d1 e63d c178 aebd 2e44 e33d 5676 c03d
000002b0: d411 5abc 2574 013e 2df6 9ebd 9cbe 853a
000002c0: 2c88 063e 0e27 e8bd 304d e23c 7197 4dbc
000002d0: 504b c43c 8c45 4abc c843 8c3d 2384 7e3c
000002e0: e0d4 59bc 4e87 fc3d e583 e7bd 9398 cebd
000002f0: 35fe 2b3c 394b afbb e585 a6bd 6d4b b83d
00000300: b369 12be 8269 8cbe d9e7 963e 9b71 50be
00000310: 8dd4 34bd 9c73 5f3c 07f9 f13e c65c 73bc
00000320: 5174 35be 4376 b23e 9ddd 8ebb e4e3 c0be
00000330: 4ec4 fd3d b75c 15be 4ef3 b03e 05b0 80be
00000340: 2a53 883b 34be b43e 5167 223e 7dc6 3abe
00000350: e442 3e3e 561e 43be 46af cfbe 4fcb 2b3e
00000360: 9334 2cbe 5575 49be ee35 813e 5cfd db39
00000370: 31b3 f83d df0e df3d d9ca ea3e 8b80 23be
00000380: b387 6c3e aee0 063e 7b64 5abd 39f1 8c3e
00000390: be89 bb3d 1ff3 d2bd 44f7 1d3d 9071 eb3d
000003a0: 9ff7 40be 0316 2bbd 6085 cabd 89a5 b6bd
000003b0: 5549 803d 02b3 3dbe e94e cabc 0d78 523e
000003c0: d872 0dbe fe2b 20bd c7a0 053c 6cba 863e
000003d0: 77ce 83be f858 893e 7862 73bc dcb6 8dbe
000003e0: ad90 883e 31bb 4cbe 4efe d23b 9d29 ad3d
000003f0: abc1 b23d 3024 e63d 133c 353d 8c0c 42be
-0.1604334 0.11554497 0.23585902 -0.17039472 0.3535882 -0.3987008 -0.019131873 0.37846878
-0.11088657 0.19834024 -0.41383088 -0.02597984 -0.25584373 -0.19117436 0.20452568 -0.039089438
-0.4019878 0.2116478 -0.25937086 -0.14507206 0.15489234 -0.16023093 0.009134586 0.13464418
-0.16130051 -0.10675317 0.2957587 0.36879867 -0.20471238 -0.22252218 -0.0039368575 -0.093363695
0.14879191 0.07356071 -0.20069283 0.16294707 -0.102318205 0.12891018 -0.145105 -0.11016419
0.044334173 -0.18151271 0.13167799 0.10287349 0.07772898 0.095378496 -0.190185 0.1180828
0.14972757 -0.1697522 0.0578723 0.15336555 -0.15452091 0.15363842 0.13071679 -0.13083223
0.1727774 0.06014303 -0.18154183 -0.13494748 0.072685234 0.06632799 -0.12674443 0.03013412
0.08075531 -0.13259849 0.123356946 0.0630681 -0.047671128 0.028820716 0.29970917 -0.0037067547
-0.18902034 0.15826571 -0.003631831 -0.28901646 0.1671975 -0.15815616 0.15802379 -0.0523033
0.01896536 0.13835411 0.15986595 0.057993464 -0.036485877 0.06394388 -0.26420206 -0.038342025
0.07387383 -0.17454594 0.09130452 -0.012492343 0.15792732 0.17008728 0.28143728 -0.16638434
0.1068084 0.18262762 0.027635964 0.1513762 0.21638358 -0.2175144 -0.074864425 0.22406626
-0.12694858 -0.023803242 -0.25237122 0.039262053 -0.100098245 -0.13569212 -0.022504799 0.16521114
-0.24882199 0.013391147 -0.1267311 0.12006003 -0.13678828 0.14099558 0.095098376 -0.14929402
0.14420822 -0.11733384 0.095928885 0.22697695 -0.030739475 -0.06934616 -0.06626724 -0.15352158
-0.10417759 -0.085818015 0.0055918484 -0.13233957 -0.054874256 0.05078836 0.008427805 -0.06863649
0.08911548 0.016183252 0.088056006 0.037152126 -0.010843228 0.074137375 0.01648253 -0.109549895
0.07957255 0.01763638 0.01270484 -0.13249929 0.11429187 -0.108054064 0.014952349 0.11443923
-0.13809526 0.076787286 -0.018989593 -0.071708865 -0.021572491 -0.040373825 -0.019578267 0.11481135
-0.021349818 -0.00068288017 -0.08872803 -0.005009646 -0.0902485 0.11951676 -0.10637635 -0.103146724
0.11270357 -0.08519126 0.110969886 0.09397571 -0.013309915 0.12641962 -0.07761798 0.0010203901
0.13137883 -0.11335574 0.027624696 -0.0125483135 0.023961693 -0.012345683 0.06848866 0.015534434
-0.013295382 0.12330495 -0.11304454 -0.10087695 0.010497619 -0.0053495434 -0.08131007 0.08998761
-0.14298134 -0.27424246 0.2947376 -0.20355837 -0.044148017 0.013638403 0.47260305 -0.014853662
-0.17720152 0.34855852 -0.0043599145 -0.37673867 0.12390958 -0.14586149 0.34560627 -0.25134292
0.0041603046 0.35301363 0.15859725 -0.1823978 0.18580204 -0.19054541 -0.4056341 0.16776775
-0.1681693 -0.19673665 0.25236458 0.00041959703 0.12143553 0.10891508 0.45857885 -0.15967004
0.2309864 0.13171646 -0.053318482 0.27527788 0.091571316 -0.10300278 0.03856589 0.1149627
-0.1884446 -0.04176904 -0.098887205 -0.08918292 0.06263987 -0.18525317 -0.02469583 0.20553608
-0.1381334 -0.039104454 0.008156008 0.26314104 -0.25743458 0.2682569 -0.01485502 -0.27678573
0.2667288 -0.19993283 0.006439007 0.08455203 0.087283455 0.11237371 0.044246744 -0.18950099

genenet_fcs.8.bias f4 [10]
00000000: bd67 e73c c037 19bc fffa 7bbd 3f8b 033d
00000010: 8081 4c3c 1ca0 603c f5d4 47bd e80a a43a
00000020: 76c8 63bc 01c9 4bbd
0.028247708 -0.009351671 -0.061518665 0.032115217 0.012482047 0.013710048 -0.048787076 0.0012515457
-0.013902774 -0.04975224

genenet_fcs.9.weight f4 [4, 10]
00000000: ba42 9a3e 1849 5e3e 3561 98be d048 1c3f
00000010: 1ce5 8dbe d69b 99bd b5d4 55bf 70ef 003f
00000020: 4bdb 33bf 7119 c0bd 006d b7be 684a 0a3e
00000030: e61c fbbe 5b8a f1be 0666 9d3e 1c1c a03e
00000040: 97ec c3be 9951 23bf 44e7 6b3f ad28 c0be
00000050: beea 4cbf 418c 893e 43d0 013f 58ff 51be
00000060: aab4 e7bd 7a38 5dbb ad66 9a3e 74ce a83e
00000070: 690d 81be 7a4d 5f3f 5e62 613f 7489 24bf
00000080: 4c5f a33e f3c3 8c3d 9ee6 4c3d 4a7f a2be
00000090: aa84 6d3f 361e 2abe 924e b9bc d598 dabe
0.30129033 0.2170757 -0.29761663 0.61048603 -0.2771386 -0.075004265 -0.8352769 0.5036535
-0.7025649 -0.093798526 -0.35825348 0.13504946 -0.49045485 -0.4717587 0.307419 0.31271446
-0.3826644 -0.63796383 0.9214976 -0.37531033 -0.8004569 0.26864818 0.5070841 -0.20507562
-0.11313756 -0.0033755586 0.3015646 0.3297001 -0.25205544 0.87227595 0.8804072 -0.64272237
0.31908643 0.06873312 0.05002462 -0.3173774 0.92780554 -0.16613087 -0.022620473 -0.42694727

genenet_fcs.9.bias f4 [4]
00000000: 0a68 203d 4b00 943c 494d a1bd 6a25 ebbc
0.03916172 0.018066546 -0.07876069 -0.028704364

momentum_buffer f4 [64, 96]
00000000: d0aa 3ebd c2ac b9bc 11dd 2e3d a667 a4bd
00000010: 627f 15be 8402 363e 4fe2 3bbd a96f 05be
00000020: a497 043c bef0 16be 52cf 213c bba4 e73c
00000030: e048 a93d 7014 c5bc 5c07 8abe caa7 14be
00000040: 5846 353e 1655 c13f c40e 0f3c 71ef 16be
00000050: 8e6c 1f3c 8495 4bbd 2390 e73c 61ca c6bc
00000060: 7ea0 a73d bdab edbe 0cf4 89be aa2b 14be
00000070: 6136 363e 694b c13f f43e a1be 7b1d 4cbc
00000080: 6643 1f3b f4fe 03bb 039a 50bd 37e1 e73c
00000090: 027c cbbc 4252 a93d 4b03 4bbd 088b 473d
000000a0: 3242 923e b84d a4bd 7d63 173d 27bd 353d
000000b0: ee47 9cbb a6f1 16be 885f b1bd 8f56 13be
000000c0: 76d8 343e 90a2 053d bb67 c13f ac2d 14be
000000d0: 14c4 1d3d da3a 04bd 2ee7 bc3d 2293 5cbc
000000e0: ed55 f03d 4e6a 07be 4b90 683d c3b1 8bbd
000000f0: 83e2 78bd db2e 163d bebf 423d 6ea2 17bd
00000100: 38b1 1bbd 011f 8dbd dac0 003b efc4 37bd
00000110: 089c 2a3e 20c7 fd3c 08db a7bd 2554 61be
00000120: 0b7f 76bd ed0f 29bd bf65 aabd e25b 0cbe
00000130: f964 183e c2cb a8bc 19c9 d63e 3499 86bd
00000140: f99d b6be e89d 9dbd 5d92 a33e e76e 13be
00000150: 2e66 8fbd 54f7 72bb 9d24 12be 990e 353e
00000160: 5074 023d 10a6 a5bc fcf4 2ebc 128a 483e
00000170: bf8e c13f 45ee 113d dae9 90bb 1cbb 443e
00000180: edfa 03bc ce58 093b b6b1 85bd a689 893d
00000190: 21b9 663d 7c08 273e 355c 01bc 878b 553b
000001a0: b6e7 ad3c 8ce2 9a3d 340d 52bd 9f4e d33b
000001b0: f02b f3bd 1dbf 563c 3a5a 0d3d 47a0 5f3d
000001c0: 9c84 253e b722 62be 3ce7 a73c dc42 9e3d
000001d0: 9839 53bd e9d2 15bc 383a b23b 35fb 3c3c
000001e0: 09cf f4bd ee34 653c f9d1 0a3d 8b19 633d
000001f0: d515 273e 18fe 62be de50 863d 0a8e 84bc
00000200: c596 ad3a c2aa 763d 071b 1dbc a063 983b
00000210: 43d9 363c 2313 f5bd 938a a1bd 1f25 1ebd
00000220: e6ee b83d ba7f c5ba 0425 523d d4bb 1abb
00000230: f3ce ad3a 2a31 983d f423 46bc faad 623d
00000240: b1e7 253e 3cc0 823c 4081 61be b388 603d
00000250: 779f 553d 1b61 1dbc 93d9 8abc 28b6 86bc
00000260: 78a4 d73d b93c dfbc 9cff 80bb 1341 2dbe
00000270: e056 633b bd20 77bd 1f1c 25bd 9385 62bd
00000280: c7dc 54bc d711 97ba 70ec d33a a84d 87b9
00000290: 7d58 dbbd 2f78 a4bb 2bc1 313d e646 b8bd
000002a0: 2db7 123d ea80 843c f509 a13c 6c22 013d
000002b0: 6f6d 1a3c 1d4a a9bd 0a3d 513b 66b0 ad3d
000002c0: aee4 613d 0d55 f2bb c065 8d3c c159 50be
000002d0: f49f 3a3d e98f f33a 8acc d4bc 6deb 253e
000002e0: 75bd 833c 2645 3a3d 2fed 64bd 44b6 63bd
000002f0: c097 62be f4f7 f6bd 3cb2 933d b1f1 4bbc
00000300: 2b5a 09bc 629f f83a e406 59bc 8f50 4e3d
00000310: cd75 eebc 06e8 27bc 163a eebb ebaf dfbc
00000320: 5de6 25bb f383 a2bb a663 f3bb 6f06 62bc
00000330: 46a6 7cbd b485 a03c ccde 89bc 1841 eabc
00000340: a668 27bc 4815 b63d 8451 58ba 8af6 b1bb
00000350: 8f77 cfbb b7ae 01bc ecd4 69bc 23c1 9c3c
00000360: 7043 7bbd 9d7b 253b d959 85bc 798d e2bc
00000370: e483 42bc 5927 b53d 7270 03bd eac1 213d
00000380: cae7 973c 5483 d3bc be0b dcbb 07a7 69bc
00000390: d01d 983c 8f9e 79bd 6c19 bebc 3eb2 153c
000003a0: 1c65 58bb 8ad3 43bd 35e1 0fbc 24a8 4abc
000003b0: bbca 3dbc 8dec 86bb 9875 e13b 721e e6bc
000003c0: ead3 3bbc 8439 383d 5cca b33d 2c65 eebc
000003d0: f598 eebb 3106 c03b fa56 6cbc 5cb7 1c3d
000003e0: f223 5d3d 9b38 55bd 732b 33bd 41f7 babb
000003f0: 2c9c ab3c 7e51 753d 1c39 173c 36d8 223b
-0.04654962 -0.022665385 0.042691294 -0.08027582 -0.14599374 0.17774397 -0.04587012 -0.13030876
0.008092795 -0.14740273 0.009876089 0.028276792 0.08265853 -0.024057597 -0.2695874 -0.14517131
0.17702615 1.5104091 0.008731548 -0.14739777 0.009730471 -0.049703136 0.028266972 -0.024266424
0.08184908 -0.46420088 -0.26944005 -0.14469782 0.17794181 1.5101138 -0.31493342 -0.012458201
0.0024301647 -0.0020140978 -0.050928127 0.028305633 -0.024839405 0.082676426 -0.049563687 0.048716575
0.28566128 -0.08022636 0.036960114 0.044369843 -0.004769317 -0.14740619 -0.08660799 -0.14388488
0.17660698 0.032625735 1.5109781 -0.14470547 0.038517073 -0.032282688 0.092237815 -0.013462814
0.11735139 -0.13224146 0.056778233 -0.06821015 -0.060762893 0.03666578 0.04754614 -0.03702014
-0.038010806 -0.06890679 0.0019646198 -0.044865545 0.16661084 0.03097874 -0.08196074 -0.22004755
-0.06017975 -0.041274954 -0.08320188 -0.13706926 0.14882268 -0.020604972 0.419503 -0.0657219
-0.356674 -0.07696134 0.31947604 -0.14397775 -0.07001911 -0.0037073689 -0.1427178 0.1768135
0.031849205 -0.020220786 -0.010678526 0.1958392 1.5121688 0.035627622 -0.0044224085 0.19212002
-0.008055431 0.0020957473 -0.06528036 0.067157075 0.056328896 0.1631183 -0.007895519 0.0032584385
0.021228652 0.07562742 -0.051282123 0.0064485813 -0.11873615 0.013107088 0.034509875 0.05459621
0.16163868 -0.22083555 0.020496003 0.07727596 -0.051568598 -0.009144523 0.005439069 0.011534502
-0.11953551 0.01398967 0.03389165 0.05544428 0.16316922 -0.22167242 0.06558393 -0.01618101
0.0013243785 0.06022144 -0.009588963 0.004650548 0.011160198 -0.11966541 -0.07887759 -0.03860962
0.09029941 -0.0015067973 0.051304832 -0.002361049 0.0013260528 0.07431252 -0.012093533 0.0553417
0.16201665 0.015960805 -0.22021961 0.054817867 0.05215403 -0.009605671 -0.01694945 -0.01644428
0.10529417 -0.027250635 -0.003936721 -0.16919355 0.0034689233 -0.060333956 -0.04031002 -0.055303168
-0.012992091 -0.0011525702 0.0016168486 -0.00025807065 -0.10710237 -0.00501921 0.04339711 -0.08997898
0.03581922 0.016174752 0.019658068 0.031526968 0.009425505 -0.08266089 0.0031927251 0.08480911
0.055149727 -0.0073953927 0.017260432 -0.20346738 0.0455627 0.0018582317 -0.025976438 0.16203089
0.016081551 0.0454761 -0.05589026 -0.055593744 -0.221282 -0.12059012 0.0721173 -0.01244776
-0.008383314 0.0018968398 -0.013246272 0.050369795 -0.029108906 -0.01024819 -0.007270108 -0.027305564
-0.002531431 -0.004959577 -0.0074276505 -0.013795479 -0.06168201 0.019595005 -0.01682987 -0.028595492
-0.010217821 0.08890778 -0.0008251893 -0.005431001 -0.006331391 -0.00791519 -0.014271956 0.019135064
-0.06134361 0.0025250681 -0.016278194 -0.02765535 -0.0118722655 0.088453956 -0.032089658 0.03949157
0.018543143 -0.025819458 -0.006715267 -0.014261014 0.018568903 -0.06094223 -0.023205481 0.0091367345
-0.003301925 -0.04780916 -0.008781721 -0.012369189 -0.011583979 -0.0041175545 0.0068804733 -0.02809069
-0.0114640985 0.044976726 0.08778831 -0.029100977 -0.0072814175 0.005860113 -0.014425034 0.038260803
0.05398936 -0.052055936 -0.04374261 -0.0057057445 0.020948492 0.05989217 0.0092299245 0.002484811

momentum_buffer f4 [64]
00000000: 41c2 63ba cdd7 f137 ee13 c038 6f29 e0b9
00000010: a5e3 46ba 6db8 d3b9 7729 2f3a d6b7 9d38
00000020: 1d8f 5739 722b b339 b4f9 3eba 31b4 7938
00000030: 18c5 4dba 3d28 4eb9 ae95 813a ae3c 293a
00000040: 30e9 6f3a c9a6 723a ddca 58ba 9907 b2b9
00000050: cc11 5cba 8637 8cb9 89f4 2bba 3ec8 85ba
00000060: aaa5 71b9 010a 2a3a 75c4 883a 702c 6fba
00000070: 0c7f ce39 9d25 2a3a 89e1 e539 0fa8 08ba
00000080: 6fb0 89ba 9aa1 42ba 042d 68ba 4324 dab8
00000090: 40e0 40ba 8293 47b9 e5c0 3e3a 3e7e 803a
000000a0: c9e2 273a c5db 1b3a 7bd9 323a 26e2 463a
000000b0: 728c f5b9 0f14 56ba e6c1 6aba a6d8 56ba
000000c0: ab63 5337 514e 0e3a 9a77 64ba e312 d639
000000d0: df7c d8b9 e81d 50ba 5dc1 32ba 689b 873a
000000e0: e242 3eba 21e4 c9b9 4c4a b338 9387 583a
000000f0: 842a 34ba 0130 e839 f40f 56ba 6f36 e539
-0.0008688309 2.8829929e-05 9.1589856e-05 -0.0004275548 -0.0007587022 -0.00040382464 0.0006681899 7.5205855e-05
0.00020557312 0.0003417391 -0.00072851335 5.9534043e-05 -0.00078494987 -0.00019660681 0.0009886527 0.00064558804
0.0009151874 0.00092564203 -0.0008269975 -0.00033956466 -0.0008394986 -0.0002674425 -0.0006559571 -0.0010206772
-0.00023045266 0.0006486476 0.0010434525 -0.0009123748 0.0003938604 0.000649059 0.0004384632 -0.0005213031
-0.0010504852 -0.0007424593 -0.00088568055 -0.00010401804 -0.00073576346 -0.0001903307 0.00072766683 0.0009803248
0.0006404338 0.0005945529 0.0006822568 0.00075867993 -0.0004683468 -0.0008166441 -0.0008955285 -0.0008195735
1.2599786e-05 0.000542854 -0.0008715332 0.00040831332 -0.00041291767 -0.00079390267 -0.00068189745 0.0010345997
-0.0007257891 -0.00038507677 8.549224e-05 0.0008259948 -0.00068727904 0.00044286254 -0.00081658293 0.0004371884

momentum_buffer f4 [64]
00000000: f2bb a03d 5371 d6bc e4ae 2ebe 9c1a c23e
00000010: c0e6 4a3e 7a72 78bd 573e 0bbf 2050 f1bd
00000020: 12a1 843e 1933 1a3e 0b25 25bf c530 0f3e
00000030: d74b a03f 694f cbbc 0138 743e 8677 1e3e
00000040: 8d5a b43e 0d0f 2d3f d8bf f4be 8354 503e
00000050: f32e bbbe 0d57 e23e 12a7 edbd b33b e1be
00000060: 41cd f03d 5ce5 11bf 4a68 99be 84ee d93e
00000070: bdfa 113e 4808 44be 0782 a8be c667 cc3e
00000080: 67f3 1cbe aa2e a33e 1eb1 903e ddc5 eebd
00000090: 7102 4ebe 130f 6ebe b069 9fbe 6fb6 ccbe
000000a0: b0c7 253e 3500 bbbe 930f cf3e 7c40 0b3e
000000b0: 1ca1 44bf a001 f7bd 3a89 abbc 8447 be3e
000000c0: 5d97 8a3e 70f7 56be 2478 a73d db30 053c
000000d0: a67d 1abe 7787 a6be 2ec3 6d3f 318e a2be
000000e0: 84a8 113f 505c 943d 1ebb 793d 38d2 173e
000000f0: 9fe1 00bd 1583 253f 9a37 a8bf 8b61 52be
0.07848348 -0.026177084 -0.17058903 0.37910926 0.19814587 -0.06065605 -0.54392 -0.11782861
0.25904137 0.15058555 -0.6450965 0.13983448 1.2523144 -0.02481814 0.23849489 0.15475282
0.35225335 0.6760109 -0.47802615 0.20344739 -0.36559257 0.4420704 -0.11604132 -0.4399086
0.11757899 -0.569906 -0.2996238 0.42564785 0.14255805 -0.19143784 -0.32911703 0.39922923
-0.15327226 0.3187154 0.2826013 -0.11658833 -0.20118119 -0.23247938 -0.3113532 -0.39982936
0.16189456 -0.36523595 0.4044157 0.13598818 -0.76808333 -0.12060857 -0.020939458 0.37163937
0.27068606 -0.20992827 0.08177212 0.008129324 -0.15086994 -0.32525226 0.92875946 -0.31749108
0.5689776 0.0724417 0.060969464 0.14826286 -0.03146517 0.6465314 -1.3141968 -0.20545022

momentum_buffer f4 [64]
00000000: 5d97 293e 5a49 e6bd 4d8d 93bd f1c8 e93e
00000010: e5cc 713e 58f9 a13d cb83 f2be c262 85bd
00000020: 6a96 893e 5a40 113e 0628 24bf c035 703e
00000030: b4b9 703f 196a 9bbd 8c7a 8a3d 389f 163e
00000040: ec71 243f 7769 623f 129c d2be f80f 93bd
00000050: 4117 98be 381d 7b3e 2f70 0b3d 2577 ecbe
00000060: d9ce 8a3e 9274 2fbf a095 abbe f4ee 393f
00000070: ed1e e33d 46f8 96be 8d47 95be a6db 133e
00000080: 43c9 5b3e 144d 3c3f b034 b63e 4ac2 ecbd
00000090: d098 93be 6ebb abbe 3402 53be b8b0 84be
000000a0: 37a8 fe3d 0e91 27bf 531c 163f 0c5e a0bd
000000b0: 95bb 51bf 4238 0ebe f9b8 c2be de05 b23e
000000c0: dc61 213e 3081 71bd 0bd9 ca3d 90b6 263d
000000d0: 4316 0ebe 4f4e a7be c830 993f 057b e8be
000000e0: 692e 1c3f 68a8 0fbe 3e67 8b3e 7b49 443e
000000f0: c059 a4bc e051 3c3f e32e 8abf dcdd 35be
0.16561647 -0.112444595 -0.07204685 0.4566112 0.23613317 0.07908887 -0.47366175 -0.06512977
0.2687257 0.14184704 -0.6412357 0.23458004 0.9403336 -0.07588596 0.06761655 0.14709175
0.6423633 0.88442177 -0.41134697 -0.0718078 -0.2970524 0.24522865 0.034042533 -0.4618465
0.27110937 -0.6853725 -0.33512592 0.7263024 0.11089883 -0.29486293 -0.2915615 0.14439258
0.21463494 0.7355511 0.35587072 -0.11560495 -0.28827524 -0.33541435 -0.20606309 -0.25916076
0.12434428 -0.6545571 0.5863697 -0.07830438 -0.8192685 -0.13888648 -0.38031748 0.347701
0.15759987 -0.058961093 0.09904679 0.04070145 -0.1387568 -0.32676932 1.1968012 -0.45406356
0.61008316 -0.14029086 0.27227205 0.19168656 -0.020062327 0.7356243 -1.0795559 -0.17760414

momentum_buffer f4 [32, 64]
00000000: cde8 86bd e33d 683e 1080 e2bd 0949 dabd
00000010: 26d9 703c 7268 a3bd 2f34 083d 682e a3bd
00000020: 8e5d 47bc 39d1 193e 91b5 133d 8abc 02be
00000030: 290b e83c 4c4d 90b8 e614 48bd b024 d4bd
00000040: 9b77 4a3e 1c65 48be da2c 00be 492c cbbd
00000050: c6d6 173e 06f6 f3bd ce4b 23bd 609c 8b3d
00000060: 6767 0ebe 5679 cbbd 381c 4ebd 92e6 123d
00000070: 1bae 03bd d3a5 c8bd 5488 bc3d 85ff 273d
00000080: 10e9 f8bc 9e8a 4ebd 2075 df3d 4371 43bb
00000090: ef96 423c 1966 eabd aee0 c4bc de23 2ebe
000000a0: 0996 a4bd 972c e03d a12b f43d 9084 753c
000000b0: bfa2 433e 12dc 0ebe 5ea5 b0bd 4505 6bbd
000000c0: 4290 c33d 9b2a 51be 86ef abbd 0bad 35be
000000d0: 9134 0bbd 9300 a9bd 6469 543d 6690 adbb
000000e0: 11e4 933d f0e7 9ebd e53a 32bc a6bd 34be
000000f0: ceb3 863a a83b ef3d 76e3 e53d 1426 52bc
00000100: 9238 66bd 3b62 e03d 2051 343c c05e e33c
00000110: fa36 db3c d8c0 24bd 5243 803e 1af4 c2bd
00000120: 42b9 3c3c aab7 fa3d 1ede 1abd 89f7 883c
00000130: 5ae5 bd3e 042d 073c e8a5 e2bc 9de3 8ebd
00000140: c7af 023d 0662 01bd 759e fd3d 3a93 76bc
00000150: f562 243d 53b8 debd d23e c9bd 137c 6abc
00000160: f32b 8d3e 5a24 773a f969 bfbd 4296 dc3d
00000170: fbe2 48bd 239c 29bc 942f 993d dbcb 6c3e
00000180: d2e5 38be 7b43 ffbd 489d d13d c7ec 973b
00000190: 2e4b 943c 0a80 bebd 9c4d ea3c a879 813d
000001a0: 660f 8fbd ef79 663d 46f0 00be 2f23 34bd
000001b0: 0016 613d 6658 9ebc 7f37 cc3d e4fc 003e
000001c0: 9a57 643d c28a 2abc d56b abbd 1431 8ebc
000001d0: edb8 9dbd b98b 51be c843 273e d5a1 813c
000001e0: 52e7 873d 7e0f d23d a4f4 0bbc ac19 183c
000001f0: e520 9cb9 89f7 f03b e45a 863e b859 373b
00000200: 56b6 033d 1064 64bb f42a efbd 5e50 1e3d
00000210: 1286 7dbc 0270 59bd 281a 18bd ddbd 123d
00000220: dc8e e3bc a29a 1ebb 048d 163e 4f10 823d
00000230: 0fbd 8d3d 8d12 ba3b f630 7f3e 5484 09bc
00000240: fb15 973d cadd ea3d 960e 5a3d 6349 743d
00000250: b22c 673c cc65 aa3e 1ab6 013e 4222 cb3c
00000260: c6fa c73d 382c 2b3e a1d3 913c 0754 833d
00000270: 3432 e3bb a4ce 90bd bc3b c63d dc4c 9d3c
00000280: 62c5 e13c a3c4 08bd cafb 323d 1f7a c1ba
00000290: b029 e93d 540b be3d f47d 2b3c a8a4 9e3d
000002a0: 3863 993c 68f5 d93b 80ee 2cbd 1ed9 bb3c
000002b0: fffa 53bc 0691 e13b cfb4 edbd 2020 603b
000002c0: c10b 33bc d26f 6a3d e495 9fbd 0772 fb3d
000002d0: d963 6f3c 35f4 97bb b60a 44bd d095 2bbd
000002e0: 145d 073c a4af 5b3e 9ac6 30bd 4747 9b3d
000002f0: 128c 1eba f063 babc 0a0d 1e3d dc05 9d3b
00000300: e61e f2bc 5cc8 b93d 2439 dd3d 8d61 b3bd
00000310: f4f6 2a3d 9c08 2abe bcbd d53c e0ce e5bc
00000320: 6dbb 4c3d 07ac 473d 54df 14bc fe05 86bd
00000330: 5ca6 dd3c e932 c03c 56b8 1ebe f6c6 27bd
00000340: c024 3abd 868d 19be e3f4 9fbd 829f 12be
00000350: e206 a0bd 5212 87be 2914 c0bd 1f2e 3abc
00000360: 65e9 4abd 1ccf afbd b436 a6bd 0b4d a8bd
00000370: e663 d3bd 3805 b2bc 809c a1bd b82f 64bb
00000380: b2c8 c7bb 321c dbbc c0e1 c4bd 17a2 81bb
00000390: 6a53 26bd a7cc 2ebd a12a b4bc 9565 5abd
000003a0: 3a2b 0fbe db21 edbd 2090 843c 4b61 52bd
000003b0: 1f33 5ebd 1966 95bc b676 c23c 8ed6 2abd
000003c0: 88f5 1b3d d834 81bd 229c 8abd a879 20be
000003d0: d4b5 3abd a8bb 2abd 281f cfbd 1a68 edbc
000003e0: 3567 843d b295 dbbd 5fcf e6bd fc4a 2bbe
000003f0: 20a2 e23a ff74 d23c 241f ffbd 0587 93bd
-0.06587372 0.22679858 -0.11059582 -0.106584616 0.01470021 -0.07978906 0.03325289 -0.07967836
-0.012168301 0.15021218 0.036061827 -0.12767234 0.028325634 -6.880853e-05 -0.048848055 -0.1035856
0.19772188 -0.1956982 -0.1251711 -0.09920556 0.14828023 -0.119121596 -0.039867215 0.068169355
-0.13906632 -0.09935252 -0.05031988 0.03586442 -0.03214846 -0.097972535 0.0920569 0.041015167
-0.03038457 -0.050425164 0.10911012 -0.0029822148 0.011876806 -0.11445255 -0.024032917 -0.1700587
-0.080364294 0.10946005 0.11922384 0.014985219 0.19105051 -0.13951138 -0.08625291 -0.057378072
0.09548999 -0.20426409 -0.08395295 -0.17741792 -0.033985678 -0.08252063 0.05185832 -0.0052967547
0.072212346 -0.07759082 -0.010878299 -0.1765047 0.0010276975 0.116813004 0.11225025 -0.012826461
-0.056206293 0.10956236 0.01100567 0.027755141 0.026759613 -0.040222973 0.2505136 -0.09519215
0.011518778 0.122420624 -0.037809484 0.016719596 0.37089044 0.008250479 -0.027667 -0.069770075
0.031905916 -0.031587623 0.12383739 -0.01504975 0.040133435 -0.10875001 -0.09826435 -0.014311808
0.27572593 0.0009427719 -0.093463846 0.10770847 -0.04904459 -0.010352167 0.07479778 0.2312464
-0.1805642 -0.12464043 0.10235077 0.0046363804 0.018102255 -0.09301765 0.02860146 0.06322032
-0.06985359 0.05626863 -0.12591657 -0.043978866 0.05495262 -0.019329261 0.099715225 0.1259647
0.055747606 -0.010409059 -0.08370177 -0.017357387 -0.077012874 -0.20463456 0.1633445 0.015824238
0.06635918 0.10256861 -0.008542214 0.009283464 -0.00029779147 0.0073537272 0.2624122 0.002797706
0.03215631 -0.003484968 -0.116781145 0.038650863 -0.015473859 -0.053085335 -0.03713432 0.0358256
-0.027778082 -0.0024201055 0.1470223 0.06350767 0.06920826 0.005678481 0.24921021 -0.008393366
0.07377239 0.11468084 0.053236566 0.0596403 0.014109777 0.3328079 0.12667122 0.024796609
0.09764628 0.16716087 0.017801108 0.06412511 -0.006933475 -0.070706636 0.09679362 0.019201688
0.02755994 -0.033390652 0.043697156 -0.0014761126 0.113849044 0.092795044 0.010467041 0.077462494
0.018724069 0.006651569 -0.04221964 0.022930678 -0.01293826 0.006883743 -0.11606752 0.0034198835
-0.010928095 0.057235546 -0.07792261 0.12277608 0.014611208 -0.004637266 -0.047861777 -0.04189092
0.008261938 0.2145372 -0.04315815 0.075819544 -0.0006048094 -0.022752732 0.038586654 0.0047919583
-0.02955575 0.09071419 0.10801914 -0.08758841 0.04173942 -0.16604847 0.026091449 -0.028052747
0.04998343 0.048748042 -0.009086449 -0.06544112 0.027056865 0.023461776 -0.15500006 -0.04096123
-0.045445204 -0.14995393 -0.0781038 -0.1431866 -0.07813813 -0.26381165 -0.09378845 -0.011363535
-0.04953899 -0.08584425 -0.081159025 -0.0821782 -0.103217885 -0.021731004 -0.07891178 -0.0034818482
-0.006096923 -0.026746843 -0.09613371 -0.00395609 -0.040606894 -0.04267564 -0.021992983 -0.053319532
-0.13981333 -0.11578723 0.016182005 -0.051362317 -0.05424797 -0.01823716 0.023738246 -0.04170852
0.038075954 -0.06308907 -0.06768061 -0.15671408 -0.04558356 -0.04168287 -0.101133645 -0.028980304
0.06464998 -0.107219115 -0.11270022 -0.16727823 0.0017290749 0.025690554 -0.124571115 -0.07203487
