other methods/models/MLP_random_seed_456/gut_16s/model_IR_IS_classification.pth (torch, 171453 bytes, 28 tensors)

genenet_fcs.0.weight f4 [64, 96]
0	0x3c3b8596	0.011445424
1	0xbd192a9c	-0.03739415
2	0x3cc9b424	0.02462203
3	0x3cba0756	0.022708576
4	0xb9c24356	-0.00037052733
5	0x3c4461d8	0.011986218
6	0x3d3211a5	0.04347386
7	0xbd280960	-0.041024566
8	0x3acc3df2	0.0015582426
9	0xbc888edf	-0.016669689
10	0x3bf1cd1a	0.0073791863
11	0x3cc81abf	0.024426816
12	0x3d11385c	0.03545414
13	0xbc714d43	-0.014727893
14	0x3c708df2	0.01468228
15	0xbcda5bfb	-0.026655188
16	0xbcb2fe6b	-0.021849832
17	0xbd17223a	-0.036897875
18	0x3d01b550	0.031667054
19	0xbc9c12d7	-0.019051952
20	0xbbaff1b6	-0.0053693904
21	0x3cee952f	0.02912387
22	0xbb77bd83	-0.0037802167
23	0x3cc605f7	0.024172766
24	0xbb311389	-0.00270197
25	0x3d096ff3	0.03355403
26	0x3cb129f1	0.021626445
27	0xbb8e162f	-0.0043361406
28	0x3cae9580	0.021311522
29	0xbd502ba7	-0.05082288
30	0xbc3e2829	-0.011606255
31	0x3d4eff7a	0.05053661
32	0x3d6c8107	0.057740238
33	0x3ba29e28	0.0049627014
34	0xbcea7228	-0.028618887
35	0xbb005393	-0.0019581064
36	0xbb39db73	-0.0028359562
37	0x3d14ac33	0.036297034
38	0xbca7f4ea	-0.020502526
39	0xbc5a6724	-0.013330255
40	0xbc759cb2	-0.014990972
41	0xbcb4ff92	-0.022094522
42	0xbc03f132	-0.008053111
43	0x3d03f90e	0.03221994
44	0xbcf5793e	-0.02996504
45	0xbc4a168f	-0.01233448
46	0xbd102ab7	-0.035196986
47	0x3d0b3151	0.03398258
48	0xbd2a6cce	-0.04160767
49	0x3d1a937c	0.03773831
50	0xbc25286c	-0.010080438
51	0xbb99e823	-0.0046968623
52	0x3d85d070	0.06533897
53	0x3d9dd11a	0.077058986
54	0x3cb458a6	0.022014927
55	0x3b75eb0c	0.0037524132
56	0xbdb0bca9	-0.08629734
57	0xbd19f4a5	-0.037586827
58	0x3d5f82b4	0.054568008
59	0xbd86508f	-0.06558334
60	0xbd110d69	-0.03541318
61	0x3d519069	0.05116311
62	0xbd8c4a5e	-0.06850122
63	0xbcd494b7	-0.025949819
64	0xbc8844ff	-0.016634462
65	0xbd3d3fd1	-0.04620344
66	0x3cecb2cb	0.028893849
67	0x3bbae630	0.00570371
68	0xb9a1f39a	-0.0003088981
69	0xbdcf553a	-0.101236776
70	0x3ba0669f	0.004895046
71	0xbcee79df	-0.029110847
72	0x3d02f0aa	0.031967796
73	0xbd5105b5	-0.051030833
74	0x3cc003c0	0.023439288
75	0x3ca754fc	0.020426266
76	0xbd8f8eea	-0.070096806
77	0xbd384c22	-0.04499448
78	0xbba5d62b	-0.005060931
79	0x3d6a4e9e	0.05720388
80	0x3d483201	0.048875812
81	0xbc8edcf5	-0.017439345
82	0xbbe1fbb6	-0.0068964614
83	0xbc67c11f	-0.014145165
84	0xbce4dea6	-0.027938198
85	0xbce6f4d6	-0.028192919
86	0x3adfc3b9	0.001707188
87	0xbd028e34	-0.031873897
88	0x3a94b55e	0.0011345556
89	0x3b7044f9	0.0036662205
90	0xbd8365a9	-0.064158745
91	0xbd86e011	-0.06585706
92	0x3d3c946e	0.04603999
93	0xbc821c82	-0.015882734
94	0x3cfc7fb5	0.030822614
95	0xbc4dee13	-0.012568968
96	0x3d79f2d1	0.061022583
97	0xbc810fe5	-0.01575465
98	0x3b278f72	0.0025567678
99	0xbd617bab	-0.05504958
100	0x3ceac966	0.028660487
101	0x3ca45a8d	0.02006271
102	0x3d8c697f	0.06856059
103	0x3cfc023a	0.03076278
104	0x3c2ef47f	0.01067841
105	0xbc42164b	-0.011846135
106	0x3c8faa60	0.017537296
107	0x3d2b666d	0.041845728
108	0x3b290a0b	0.002579334
109	0xbba0795f	-0.004897281
110	0xbc94b943	-0.018154746
111	0xbd4de33c	-0.050265536
112	0xbd4b8143	-0.04968382
113	0x3cc00fc1	0.023445012
114	0xbcc36fa6	-0.023856949
115	0x3d84180f	0.06449901
116	0x3c23250b	0.009957562
117	0x3c52deaf	0.012870475
118	0x3cb1da4d	0.02171054
119	0x3c1fc721	0.009752066
120	0xbd0fc48b	-0.035099547
121	0xbd282e63	-0.041059863
122	0xbd41b8fe	-0.047295563
123	0xbc2894fa	-0.010289425
124	0x3cb803d1	0.022462757
125	0xbc83167f	-0.016001938
126	0x3d55f755	0.052237827
127	0x3c1e3f20	0.009658605
128	0xbc56024b	-0.01306207
129	0x3c0bb481	0.008526922
130	0xbc045df7	-0.008079044
131	0xbc7d4342	-0.01545793
132	0xbc014b14	-0.007891435
133	0xbd28d982	-0.041223057
134	0xbd182b39	-0.037150595
135	0x3d490e32	0.049085803
136	0x3d0d7405	0.034534473
137	0xbd0f0f21	-0.034926537
138	0xbdad2519	-0.084543414
139	0x3d514b39	0.05109713
140	0x3cb0dfc8	0.021591082
141	0x3d46d87a	0.048546292
142	0xbd2e1bfb	-0.042507153
143	0xbc77cf95	-0.015125175
144	0xbd0285b5	-0.031865794
145	0x3d00ca84	0.031443134
146	0x3d56f431	0.052478973
147	0xbd23174f	-0.03981715
148	0xbd3654d3	-0.04451449
149	0xbd0545d7	-0.032537308
150	0xbd577f02	-0.05261136
151	0xbb3b1a01	-0.0028549435
152	0xbc52f80f	-0.012876525
153	0x3d42e287	0.047579315
154	0xbd1c47a8	-0.038154274
155	0x3dcca106	0.0999165
156	0x3c53000d	0.01287843
157	0x3ccaba12	0.024746928
158	0xbcfe7e47	-0.031066073
159	0x3c7525eb	0.014962654
160	0x3b5737c1	0.0032839628
161	0x3c6810f2	0.014164196
162	0x3b0d8d92	0.0021599275
163	0xbd2e88d4	-0.04261096
164	0x3d01acc9	0.03165892
165	0xbd97a2ee	-0.07404123
166	0x3ae9188d	0.0017783806
167	0xbc3e5e84	-0.011619214
168	0xbd06bb4a	-0.032893457
169	0xbc766274	-0.0150381215
170	0xbb5cf111	-0.0033713023
171	0xbd43bcce	-0.04778748
172	0x3dbba9ae	0.09163223
173	0x3d80ec9a	0.06295128
174	0x3d2b7537	0.04185983
175	0x3c8cfc91	0.017210277
176	0x3d3c9ffe	0.046051018
177	0xbd171f2a	-0.036894955
178	0xbd0a51b7	-0.033769336
179	0xbc0855af	-0.00832121
180	0x3c8bf612	0.017085109
181	0xbd8b5251	-0.0680281
182	0x3d33e538	0.043919772
183	0xbcff89cf	-0.031193642
184	0x3d181ab7	0.037134852
185	0x3c888133	0.01666317
186	0x3dab49fd	0.083637215
187	0x3d403cab	0.046932857
188	0x3b1d4a85	0.0024000716
189	0x3d8ad2f1	0.06778515
190	0xbcb5caff	-0.022191523
191	0xbd173722	-0.036917813
192	0xbd0123c0	-0.031528234
193	0xbd6be0a7	-0.057587292
194	0x3c27a6d2	0.010232644
195	0xbc539952	-0.012914972
196	0xbcfebdad	-0.031096304
197	0x3d852181	0.06500531
198	0x3cab96ae	0.020945873
199	0xbc87b611	-0.016566308
200	0xbd124f5a	-0.035720207
201	0xbbf6d137	-0.0075322646
202	0xbc9bbe35	-0.019011596
203	0xba69befe	-0.00089167047
204	0x3cbfc370	0.023408622
205	0xbcb80a82	-0.022465948
206	0xbd0155f2	-0.031576104
207	0xbb9e7333	-0.00483551
208	0x3d881023	0.06643703
209	0x3a390b45	0.0007058869
210	0x3d371e51	0.044706646
211	0xbceb4ac5	-0.028722176
212	0x3d0b4267	0.033998873
213	0xbd1d1c9b	-0.03835736
214	0xbabed9e1	-0.0014560783
215	0x3c4f12ae	0.012638731
216	0x3d2137a7	0.039359715
217	0x3cb61957	0.02222888
218	0xbbb6950d	-0.0055719675
219	0x3d21b5db	0.03948007
220	0xbc3d3566	-0.011548376
221	0xbca974fd	-0.020685667
222	0xbda536de	-0.08067106
223	0x3d7954af	0.060871776
224	0xbd10db5e	-0.035365455
225	0xbbd8ecc6	-0.0066200225
226	0x3c95203e	0.01820385
227	0xba7678f3	-0.0009402178
228	0xbc662b71	-0.014048443
229	0x3d6eb6f3	0.058279943
230	0xbd589b4c	-0.052882478
231	0x3c23213a	0.009956652
232	0xbbcab089	-0.0061855954
233	0x3ca65bc2	0.020307425
234	0xbd60e3fb	-0.05490492
235	0x3d012fbd	0.031539667
236	0xbd2e23c0	-0.042514563
237	0x3dc0acc2	0.09407951
238	0x3d69ca4e	0.0570777
239	0x3c9b5064	0.018959232
240	0x3bfc0849	0.0076914174
241	0xbb91c3c5	-0.0044483864
242	0xbd553ef7	-0.052062
243	0xbceacdb3	-0.028662538
244	0x3c818dee	0.015814748
245	0x3bfe730f	0.007765181
246	0xbc667bde	-0.014067618
247	0x3b395548	0.0028279591
248	0xbd0c3725	-0.034232277
249	0x3cda0ec5	0.02661837
250	0x3d0085a4	0.03137745
251	0x3b92789c	0.004469944
252	0x3d02bb4f	0.031916913
253	0x3d51f0e8	0.051255137
254	0x3c6b1a40	0.01434952
255	0xbdfbd06d	-0.122956134

genenet_fcs.0.bias f4 [64]
0	0xbd27bf1d	-0.040953744
1	0x3ab23f7c	0.0013599242
2	0x3b8d7935	0.0043174275
3	0xbca51a06	-0.02015401
4	0xbd127be8	-0.035762697
5	0xbc9bee8c	-0.019034646
6	0x3d0101c7	0.031495836
7	0x3b684b54	0.003544529
8	0x3c1ec247	0.009689874
9	0x3c83f63f	0.01610863
10	0xbd0ca8a2	-0.03434051
11	0x3b37fc52	0.0028073979
12	0xbd178ebc	-0.037001356
13	0xbc17d7e7	-0.009267784
14	0x3d3ee184	0.046601787
15	0x3cf94b47	0.030431403
16	0x3d30b380	0.043139935
17	0x3d32b7ce	0.04363232
18	0xbd1fac09	-0.038982425
19	0xbc831f2f	-0.01600608
20	0xbd2215b9	-0.039571498
21	0xbc4e8914	-0.012605924
22	0xbcfd4ba6	-0.030919861
23	0xbd450ffc	-0.048110947
24	0xbc31f677	-0.010861984
25	0x3cfa7972	0.030575488
26	0x3d497714	0.049185827
27	0xbd30285b	-0.043007236
28	0x3c98169d	0.01856547
29	0x3cfaa1be	0.030594703
30	0x3ca95051	0.02066818
31	0xbcc94c60	-0.024572551
32	0xbd4ad15b	-0.049516063
33	0xbd0f591a	-0.034997083
34	0xbd2b01dd	-0.041749824
35	0xbba0a8f2	-0.0049029524
36	0xbd0e0ecd	-0.034682084
37	0xbc12fa53	-0.008970815
38	0x3d0c7e07	0.034299877
39	0x3d3d4676	0.046209775
40	0x3cf74cf6	0.030188065
41	0x3ce59698	0.02802591
42	0x3d03b99d	0.032159436
43	0x3d127b74	0.035762265
44	0xbcb4d869	-0.022075849
45	0xbd1dab84	-0.03849365
46	0xbd2ce6bb	-0.04221223
47	0xbd1e3d56	-0.038632713
48	0x3a1bafe7	0.0005938992
49	0x3cd19e8b	0.025588294
50	0xbd284607	-0.04108241
51	0x3c9da9cc	0.019246005
52	0xbc9f710e	-0.019463088
53	0xbd1947ff	-0.037422176
54	0xbd03a820	-0.03214276
55	0x3d47c163	0.048768412
56	0xbd0c2270	-0.03421253
57	0xbc94b0f6	-0.018150788
58	0x3b840c35	0.0040297755
59	0x3d1f7a81	0.03893519
60	0xbd04b206	-0.03239634
61	0x3caafdcb	0.020872971
62	0xbd1da8b8	-0.03849098
63	0x3ca8d119	0.020607518

genenet_fcs.1.weight f4 [64]
0	0x3efe4034	0.49658358
1	0x3f029ce3	0.5102064
2	0x3f056632	0.5210906
3	0x3f05a411	0.5220347
4	0x3f0d0e39	0.5509983
5	0x3f03a449	0.51422554
6	0x3f013b15	0.5048078
7	0x3f025bb0	0.50921154
8	0x3efc2bb3	0.4925209
9	0x3f0205eb	0.5079028
10	0x3f041845	0.5159953
11	0x3efffd92	0.49998146
12	0x3f07dbac	0.5306957
13	0x3f058706	0.52159154
14	0x3effa916	0.4993369
15	0x3efca814	0.49346983
16	0x3efd5c4b	0.49484476
17	0x3f040b07	0.51579326
18	0x3f010b87	0.50408214
19	0x3f035a5a	0.5130974
20	0x3f0034b9	0.5008045
21	0x3f005387	0.5012745
22	0x3f06fdfe	0.5273131
23	0x3f097035	0.5368684
24	0x3f00361b	0.5008256
25	0x3f0149ec	0.5050342
26	0x3f045026	0.51684797
27	0x3f00bc06	0.502869
28	0x3effb8a9	0.49945572
29	0x3f0154e1	0.5052014
30	0x3eff29ed	0.49836674
31	0x3f044f9e	0.51683986
32	0x3efef21c	0.4979409
33	0x3ef99957	0.48749802
34	0x3f068cbf	0.5255851
35	0x3f0469f6	0.51724184
36	0x3f03ccbc	0.51484275
37	0x3f083339	0.5320316
38	0x3efa3f76	0.48876542
39	0x3f045bd0	0.51702595
40	0x3ef9d0dd	0.48792163
41	0x3f0359e3	0.5130903
42	0x3f005eb3	0.501445
43	0x3f037174	0.5134499
44	0x3f07f664	0.5311034
45	0x3efdc95a	0.49567682
46	0x3f049f1f	0.518053
47	0x3f00e765	0.5035308
48	0x3ef7f90b	0.48432192
49	0x3f027efb	0.50975007
50	0x3f01370e	0.5047463
51	0x3f058635	0.5215791
52	0x3f077ef7	0.5292811
53	0x3f052bac	0.52019763
54	0x3f06386e	0.52429855
55	0x3efd66fe	0.4949264
56	0x3f068f8a	0.52562773
57	0x3f02c952	0.5108844
58	0x3f00c52f	0.5030088
59	0x3f04658d	0.51717454
60	0x3f042cd2	0.5163089
61	0x3ef5b80f	0.47991988
62	0x3f062d26	0.5241264
63	0x3f04cd55	0.5187581

genenet_fcs.1.bias f4 [64]
0	0xbdf1049e	-0.11768459
1	0xbdec5913	-0.11540427
2	0xbe0c03f0	-0.13673377
3	0xbe19946d	-0.14998026
4	0xbe00ece8	-0.12590373
5	0xbdb4674f	-0.08808767
6	0xbe2087da	-0.15676823
7	0xbe1a09b2	-0.15042761
8	0xbd91a33f	-0.07111215
9	0xbe388961	-0.18021156
10	0xbe2c916c	-0.16852349
11	0xbce789c6	-0.028263938
12	0xbe1eda7f	-0.15513037
13	0xbdefb1e4	-0.11703852
14	0xbd66b1c0	-0.05632186
15	0xbd751774	-0.05983682
16	0xbd0a79c1	-0.03380752
17	0xbdec2569	-0.11530573
18	0xbceac3ae	-0.02865776
19	0xbdfa9591	-0.12235559
20	0xbd6ce3c3	-0.057834398
21	0xbdbfbfe8	-0.09362775
22	0xbddf3ab2	-0.10899867
23	0xbd9ee450	-0.07758391
24	0xbd891826	-0.06694059
25	0xbd6f245c	-0.058384284
26	0xbe0282ed	-0.12745257
27	0xbdfd15c2	-0.123576656
28	0xbda38929	-0.079851456
29	0xbdd568f1	-0.104204066
30	0xbd9a26eb	-0.07526954
31	0xbe0ee0d2	-0.1395295
32	0xbd8164ad	-0.063180305
33	0xbd83a759	-0.064284034
34	0xbe13efae	-0.144469
35	0xbe321b28	-0.17393172
36	0xbe0d4d9c	-0.13799137
37	0xbe0f0652	-0.13967255
38	0xbcffbd77	-0.031218274
39	0xbe14656d	-0.14491816
40	0xbd8ab228	-0.06772262
41	0xbdb20a42	-0.08693363
42	0xbdaa5b8e	-0.08318244
43	0xbd7bd60f	-0.06148344
44	0xbe280a10	-0.16410089
45	0xbd51d3c1	-0.051227335
46	0xbdb54f41	-0.08853007
47	0xbdf86bcd	-0.12129936
48	0xbd7beab6	-0.061503135
49	0xbe1248b0	-0.1428554
50	0xbe0ac809	-0.1355287
51	0xbdcf8242	-0.101322666
52	0xbe3741bf	-0.17896174
53	0xbddee77f	-0.10883998
54	0xbe2215f4	-0.15828687
55	0xbd90ffc7	-0.07080036
56	0xbdc07f40	-0.09399271
57	0xbddaf32a	-0.10690911
58	0xbd8c907c	-0.06863496
59	0xbdbbeae2	-0.0917566
60	0xbe11604b	-0.14196889
61	0xbd8cccb1	-0.06874979
62	0xbde9a7f5	-0.114089884
63	0xbdfdae3b	-0.123867474

genenet_fcs.1.running_mean f4 [64]
0	0xbd541682	-0.051779278
1	0xbcbf4f41	-0.02335322
2	0x3ca95dc6	0.020674597
3	0xbc560861	-0.013063521
4	0xbd201efe	-0.039092056
5	0xbc4e2abc	-0.012583431
6	0x3c73ed5a	0.014888132
7	0x3c3a2242	0.011360707
8	0xbc5d61a0	-0.013512045
9	0x3cefe846	0.029285561
10	0xbcfbe91e	-0.030750807
11	0xbc5ac0b5	-0.013351609
12	0xbcb01f37	-0.02149926
13	0xbc33d813	-0.010976809
14	0x3d3f6ef7	0.046736684
15	0x3c9f4954	0.019444145
16	0x3c89f00b	0.016838094
17	0x3d84476e	0.06458937
18	0xbdbb1dc8	-0.0913654
19	0xbd0c622b	-0.034273308
20	0xbcf24fe1	-0.029579105
21	0xbc8057f4	-0.01566694
22	0xbd00db36	-0.031459056
23	0xbc6fb646	-0.01463086
24	0xbc3cd996	-0.011526486
25	0x3d52facd	0.051508714
26	0x3d7cbc6c	0.06170313
27	0xbd0e7ad8	-0.03478512
28	0x3ce299d8	0.027661249
29	0x3d0e9a80	0.03481531
30	0x3d0d4aa7	0.034495022
31	0xbc2cd6f3	-0.010549295
32	0xbd54bad7	-0.051935997
33	0xbd363aa0	-0.044489503
34	0xbd0dd354	-0.034625366
35	0xbc3194ce	-0.0108387
36	0xbd2c1035	-0.042007644
37	0xbcde9018	-0.027168319
38	0x3d325e08	0.043546706
39	0x3d501061	0.05079687
40	0x3d4ee312	0.05050952
41	0x3ce0f363	0.027459806
42	0x3c8a729f	0.016900359
43	0x3ceddfb7	0.02903734
44	0x3cac8b59	0.02106254
45	0xbd898cbb	-0.06716295
46	0xbd489bae	-0.048976593
47	0xbd848a37	-0.06471675
48	0x3c1ff1b3	0.009762215
49	0x3d1d4e00	0.038404465
50	0xbd2debe2	-0.042461284
51	0x3c4533c3	0.012036267
52	0xbd0ca51d	-0.03433715
53	0xbcd0567f	-0.02543187
54	0xbca42672	-0.020037863
55	0x3d800072	0.06250085
56	0xbcd7320e	-0.026268985
57	0x3ba8b511	0.005148538
58	0xbd2c57e2	-0.042076
59	0x3d468abc	0.04847215
60	0xbd5dcbb4	-0.054149345
61	0x3d111a7e	0.035425656
62	0xbd4b715d	-0.04966866
63	0x3c1ed722	0.009694846

genenet_fcs.1.running_var f4 [64]
0	0x3db8e4ba	0.09028001
1	0x3dce1531	0.10062636
2	0x3df54faa	0.11978085
3	0x3e0c5fe8	0.1370846
4	0x3e32d8ad	0.17465468
5	0x3dd56771	0.104201205
6	0x3e1e5ec8	0.15465844
7	0x3e0bdecb	0.13659208
8	0x3ddf6201	0.10907365
9	0x3e0d12f0	0.13776755
10	0x3e103804	0.14083868
11	0x3da3cb14	0.079977185
12	0x3e23e334	0.1600464
13	0x3e0e088b	0.13870446
14	0x3debfded	0.11523042
15	0x3db8410c	0.08996782
16	0x3dffe2a7	0.124944024
17	0x3dfc8b35	0.12331239
18	0x3e0ab981	0.13547327
19	0x3e19eea2	0.15032437
20	0x3e106c3a	0.14103785
21	0x3daec062	0.08532788
22	0x3e2328a9	0.1593348
23	0x3e2b313f	0.16718005
24	0x3de71921	0.1128409
25	0x3df80e3e	0.121120915
26	0x3e3a8ce8	0.18217814
27	0x3e297169	0.16547169
28	0x3de607e8	0.11231977
29	0x3de8d3f9	0.113685556
30	0x3dc34f63	0.09536626
31	0x3e03b53f	0.12862109
32	0x3dc4cdc5	0.0960956
33	0x3e0c4aa3	0.13700347
34	0x3e192419	0.14955176
35	0x3e1df40d	0.15425129
36	0x3e01e740	0.12685871
37	0x3e45e00f	0.19323753
38	0x3dc95135	0.09829942
39	0x3e146e37	0.14495169
40	0x3de32cee	0.11092554
41	0x3e601300	0.21882248
42	0x3dd8cb35	0.10585634
43	0x3e064a3b	0.13114254
44	0x3e412255	0.18860753
45	0x3dd84108	0.10559279
46	0x3e1393ed	0.14411898
47	0x3e12dba1	0.14341594
48	0x3df0433c	0.11731574
49	0x3e2d07cb	0.16897504
50	0x3dd7a904	0.10530284
51	0x3df7d8ae	0.12101875
52	0x3e27d918	0.16391408
53	0x3e13b2d7	0.1442369
54	0x3e29e8cc	0.16592711
55	0x3dea9f6d	0.11456189
56	0x3e12f6e9	0.14352001
57	0x3e1b655a	0.15175381
58	0x3e2f42a6	0.17115268
59	0x3e134bc2	0.14384368
60	0x3e1cde81	0.15319254
61	0x3d8e135f	0.069372885
62	0x3df30cb2	0.11867656
63	0x3e174a7c	0.14774507

genenet_fcs.4.weight f4 [32, 64]
0	0x3c5daa09	0.013529309
1	0xbd510794	-0.051032618
2	0x3d3ae715	0.045630533
3	0x3d80b1db	0.06283923
4	0xbcf6fa17	-0.030148549
5	0x3cb3be85	0.021941433
6	0x3d2b6ddd	0.04185282
7	0xbd1bf068	-0.038071066
8	0x3ce140b9	0.027496682
9	0x3d0bab16	0.034098707
10	0x3d68565f	0.056722995
11	0xbba8695b	-0.0051395125
12	0x3dbf9390	0.09354317
13	0x3cc8e18c	0.024521612
14	0x3d16aa12	0.036783285
15	0xbc7565a6	-0.014977848
16	0xbb064b32	-0.0020491597
17	0x3c7d1a76	0.015448203
18	0xbd66cf2e	-0.056349926
19	0xbce11cb8	-0.027479514
20	0xbce671cb	-0.028130433
21	0x3cd92de2	0.026511136
22	0xbb76a4be	-0.0037634815
23	0xbd662aec	-0.056193277
24	0x3d338dca	0.043836392
25	0xbc8f851b	-0.017519524
26	0x3ce14aea	0.027501542
27	0x3d6d34c8	0.057911664
28	0xbd8cd737	-0.068769865
29	0xbd3dd1c3	-0.046342622
30	0xbcc8af04	-0.024497516
31	0x3bd9685b	0.0066347546
32	0x3aeafd80	0.0017928332
33	0xbd167692	-0.03673417
34	0x3d2ff335	0.04295655
35	0x3d67855a	0.05652366
36	0xbceaed49	-0.0286776
37	0xbd1e6c8e	-0.038677745
38	0xbc8c61a0	-0.017136395
39	0xbc3b696f	-0.011438712
40	0x3bda470a	0.0066613005
41	0xbd13bcdb	-0.03606878
42	0x3d0ac380	0.03387785
43	0xbcfc65e4	-0.030810304
44	0xbced2643	-0.028948909
45	0xbbe4a3fc	-0.0069775563
46	0x3b8f50fc	0.0043736678
47	0x3d0811e5	0.03322019
48	0xbb7d4df6	-0.0038651205
49	0x3d07f0c6	0.033188604
50	0x3cbb632c	0.022874437
51	0xbd3b554c	-0.045735642
52	0x3d7dde74	0.061979726
53	0xbd6caebf	-0.05778384
54	0x3af7dda2	0.0018910656
55	0x3d347e1d	0.044065583
56	0xbc8b9b7e	-0.017041918
57	0x3c979e9e	0.018508252
58	0xbd741be4	-0.05959691
59	0xbcf99f2d	-0.030471409
60	0x3d3dfd65	0.046384234
61	0xba3334ac	-0.0006836157
62	0xbd0bd0da	-0.034134723
63	0xbd8a3a53	-0.06749406
64	0x3cdf2502	0.027239326
65	0xbd5e5dd8	-0.054288715
66	0x3caf710b	0.021416208
67	0x3cf156e7	0.029460384
68	0xbd9a563b	-0.075359784
69	0x3d081f34	0.033232883
70	0xbc2f7db8	-0.010711126
71	0x3d3165be	0.04330992
72	0xbb840df7	-0.004029985
73	0x3c4e25dd	0.0125822695
74	0x3d85561b	0.06510564
75	0x3ac8345e	0.0015274396
76	0x3d42c615	0.047552187
77	0x3d87ae57	0.066250496
78	0x3cc5579c	0.024089627
79	0xbcbff639	-0.023432838
80	0x3bb0d4ba	0.0053964527
81	0x3d356305	0.044283886
82	0xbda5a772	-0.08088578
83	0xbd7ad2a1	-0.061236028
84	0xbcb0c132	-0.021576498
85	0xbba396c9	-0.00499234
86	0x3cfd81c8	0.030945674
87	0xbd8ad84e	-0.06779538
88	0xbd10e701	-0.035376552
89	0xbc9e2a72	-0.019307349
90	0x3d2ed5c6	0.04268434
91	0x3cfc742a	0.03081711
92	0xbd181942	-0.037133463
93	0xbcd3cef2	-0.025855515
94	0xbca91625	-0.020640442
95	0x3d7ce81c	0.061744794
96	0x3d205055	0.03913911
97	0xbd1e86f5	-0.038702924
98	0xbccb2b08	-0.024800792
99	0x3d4bebc7	0.0497854
100	0xbd2163c6	-0.039401792
101	0xbd2ae6de	-0.04172408
102	0x3c9f71a2	0.019463364
103	0x3d930175	0.07178012
104	0x3d5f52a8	0.054522187
105	0xbd28b650	-0.04118949
106	0x3c970384	0.018434294
107	0xbd207e06	-0.039182685
108	0xbd7dd3ad	-0.061969448
109	0xbc90c6a4	-0.017672844
110	0x3a1ef997	0.00060644135
111	0x3c6fd612	0.014638441
112	0x3c89d8ef	0.016827075
113	0x3d22a90b	0.039711993
114	0x3d3c7241	0.0460074
115	0xbd5c2aed	-0.053751875
116	0x3d89d307	0.067297034
117	0xbcba87cb	-0.02276983
118	0xbd209a8d	-0.03920989
119	0xbc848086	-0.016174566
120	0x3d511500	0.051045418
121	0xbd053190	-0.03251797
122	0xbd007cb7	-0.031368937
123	0xbd144f74	-0.036208585
124	0x3d5aff0b	0.053465884
125	0x3d04b07c	0.03239487
126	0xbd8bace2	-0.06820084
127	0xbd3ae76c	-0.045630857
128	0xbd5ce8ab	-0.053932827
129	0x3d25ed5f	0.040509578
130	0xbd266837	-0.04062673
131	0xbd0048bb	-0.03131936
132	0x3d881799	0.06645126
133	0xbccca3c5	-0.024980435
134	0xbd7ec664	-0.06220092
135	0xbce60c5a	-0.028082062
136	0xbd04ee9b	-0.032454114
137	0xbd7553a1	-0.059894208
138	0xbd372b5e	-0.044719093
139	0x3cfc4540	0.03079474
140	0xbcd17855	-0.025570074
141	0xbd10f86f	-0.035393175
142	0xbc64b05b	-0.013958062
143	0xbc3216c0	-0.010869682
144	0x3bd5aa63	0.006520556
145	0xbca86f1a	-0.02056079
146	0xbc0f4d76	-0.0087464955
147	0x3d48d2d6	0.049029194
148	0x3d7f5f91	0.062347
149	0xbd1b7da1	-0.037961606
150	0xbc830578	-0.015993819
151	0x3d96f14b	0.07370242
152	0xbc5e4f72	-0.013568746
153	0x3d1d01ed	0.038331915
154	0xbd86e4c3	-0.065866016
155	0xbca5e541	-0.020250918
156	0x3c17223e	0.009224473
157	0x3d8567d9	0.06513948
158	0x3c1a8ca2	0.009432944
159	0xbce8220c	-0.028336547
160	0x3bd0c534	0.0063711647
161	0x3d2123a4	0.03934063
162	0xbd742116	-0.059601866
163	0xbd6cef04	-0.05784513
164	0x3cfe5011	0.031044038
165	0x3d239ad5	0.03994258
166	0x3cf73930	0.030178636
167	0xbc1a95b2	-0.009435104
168	0xbd014704	-0.031561866
169	0xbc2aa128	-0.010414399
170	0xbd05cb7d	-0.032664765
171	0x3d18b55c	0.037282333
172	0x3d504503	0.050847065
173	0x3c512372	0.0127647985
174	0xbd31d4a4	-0.04341568
175	0xbcd58873	-0.02606604
176	0xba56760a	-0.00081810413
177	0xbd2833a2	-0.041064866
178	0xbd0904fd	-0.033452023
179	0xbc2a4997	-0.010393522
180	0xbd35c6aa	-0.044378914
181	0x3d345d7a	0.04403446
182	0xbce7a677	-0.028277619
183	0xbc849cd2	-0.016188059
184	0xbd4db27f	-0.050219055
185	0xbcd96927	-0.026539398
186	0xbbd22058	-0.006412547
187	0x3c2e720a	0.010647306
188	0xbd37d7c8	-0.04488352
189	0xbcc5857e	-0.024111506
190	0x3d85a2b8	0.06525177
191	0x3d102d21	0.03519929
192	0x3c9167d6	0.017749708
193	0xbd133b1f	-0.035945054
194	0xbcc43cf4	-0.023954846
195	0x3d39e1f9	0.04538152
196	0xbd091759	-0.03346953
197	0xbbb68ef4	-0.0055712406
198	0x3cebbc08	0.028776184
199	0x3d5255c1	0.051351313
200	0x3c3ac1b0	0.011398718
201	0x3d8079da	0.06273241
202	0x3d22498b	0.039620917
203	0x3d26d198	0.040727228
204	0x3d7cd5b0	0.061727226
205	0xba8abbf2	-0.0010584577
206	0x3b3eeb67	0.002913201
207	0xbcfa94bc	-0.0305885
208	0x3d401882	0.046898372
209	0x3d63af25	0.055586953
210	0x3c16bb5a	0.0091999415
211	0xbd287639	-0.04112837
212	0xbce07e0c	-0.027403854
213	0xbcea3d34	-0.028593637
214	0x3d3e2489	0.04642156
215	0xbd4f47a6	-0.05060544
216	0xbcb5659e	-0.022143181
217	0xbb208cbe	-0.0024497951
218	0xbc389335	-0.011265566
219	0x3c8f0762	0.017459575
220	0xbcc6e25a	-0.024277855
221	0xbca1342c	-0.019678198
222	0xbd21be4d	-0.039488126
223	0x3d2487d2	0.04016859
224	0x3d31fdf9	0.043455098
225	0xb9d8d95e	-0.00041360682
226	0x3d61c4ea	0.055119433
227	0x3cc02bbd	0.023458356
228	0xbd833503	-0.064065956
229	0xbcf2003c	-0.029541127
230	0x3ce6c53c	0.02817022
231	0x3d80ed18	0.06295222
232	0x3cf7a474	0.030229785
233	0xbd3c566c	-0.045980856
234	0xba846112	-0.001009973
235	0xbc2e1c1b	-0.010626818
236	0xbc987001	-0.018608095
237	0xbc1bb18b	-0.009502779
238	0x3d5cd2c3	0.053911936
239	0xbd43d5e3	-0.0478114
240	0x3c8926de	0.016742166
241	0x3d8df313	0.06931128
242	0x3d6bc95f	0.05756509
243	0xbce1998e	-0.02753904
244	0xbc4b5bd8	-0.012412034
245	0xbcb7c0ea	-0.022430856
246	0x3da5f6bd	0.08103702
247	0xbcc3a0ac	-0.023880325
248	0xbb3941d8	-0.0028268006
249	0xbd148758	-0.036261886
250	0x3a8bbfa3	0.0010661971
251	0xbd2c477a	-0.042060353
252	0x3ccf0cdc	0.025274687
253	0x399d7489	0.000300322
254	0xbd5d3c81	-0.05401278
255	0xbd1711d8	-0.03688225

genenet_fcs.4.bias f4 [32]
0	0xbd581086	-0.052750133
1	0xbc2272c3	-0.009915057
2	0xbd2bd8dc	-0.04195486
3	0x3ab7baff	0.0014017521
4	0x3b86f19d	0.004118158
5	0x3c8413e5	0.016122768
6	0xbc32543e	-0.010884343
7	0xbd59e706	-0.053198837
8	0xbc6c0c2a	-0.014407197
9	0xbd0f2354	-0.0349458
10	0xbd7c3b6a	-0.0615801
11	0xbd3c0270	-0.045900762
12	0xbb70799c	-0.0036693579
13	0x3cbe1ead	0.023207987
14	0xbd72902a	-0.059219517
15	0x3d6312e3	0.055437934
16	0xbc6e54a3	-0.014546546
17	0x3b5d3b59	0.0033757298
18	0x3c8386b2	0.016055439
19	0xbb6ab7ce	-0.0035815123
20	0xbd41765d	-0.04723202
21	0x3b6418a0	0.0034804717
22	0x3d6f542c	0.058429882
23	0xbc622cab	-0.013804595
24	0xbd533e7a	-0.051573254
25	0x3cd7a5e7	0.026324226
26	0x3d65b795	0.05608328
27	0xbd6a5e0a	-0.05721859
28	0xbc1d6a2b	-0.009607832
29	0x3cca450f	0.024691133
30	0x3aa922d0	0.0012904052
31	0xbc35ad2f	-0.0110886535

genenet_fcs.5.weight f4 [32]
0	0x3f17bd42	0.5927316
1	0x3f18f2c3	0.59745425
2	0x3f172caf	0.59052557
3	0x3f1458fe	0.5794829
4	0x3f1c5416	0.61065805
5	0x3f15a742	0.5845834
6	0x3f13b526	0.57698286
7	0x3f12dfa7	0.57372516
8	0x3f19a40a	0.6001593
9	0x3f1c066c	0.609473
10	0x3f0793fa	0.5296017
11	0x3f0fa9af	0.5611829
12	0x3f0f8b1a	0.5607163
13	0x3f0f2f40	0.5593147
14	0x3f163cb9	0.58686405
15	0x3f106b9b	0.5641419
16	0x3f1d355c	0.61409545
17	0x3f1a123c	0.60184073
18	0x3f110a53	0.5665638
19	0x3f185320	0.5950184
20	0x3f17f237	0.59353966
21	0x3f0f5c91	0.5600062
22	0x3f10dd3c	0.56587577
23	0x3f17e7f3	0.593383
24	0x3f1868e7	0.5953507
25	0x3f13b881	0.57703406
26	0x3f19e117	0.60109085
27	0x3f1256a8	0.57163477
28	0x3f0c42d3	0.54789466
29	0x3f110225	0.566439
30	0x3f11776a	0.56822836
31	0x3f0e435a	0.5557152

genenet_fcs.5.bias f4 [32]
0	0x3da72e20	0.081630945
1	0x3dbbe3fa	0.091743425
2	0x3d870ea1	0.06594587
3	0x3d66eea8	0.056379944
4	0x3dc039f6	0.09386055
5	0x3d854cec	0.06508812
6	0x3d40530b	0.046954196
7	0x3d2b0be6	0.041759394
8	0x3d48cef9	0.04902551
9	0x3d529741	0.05141378
10	0x3b3a4869	0.0028424507
11	0x3d76fc80	0.060299397
12	0x3cf3f55d	0.029780084
13	0x3d67bedf	0.056578513
14	0x3d06949a	0.03285656
15	0x3d34213b	0.043977004
16	0x3d900591	0.07032312
17	0x3da6f6a2	0.0815251
18	0x3d7b18c4	0.061302915
19	0x3db744e2	0.08948685
20	0x3d75424c	0.05987768
21	0x3d1c64b1	0.038181964
22	0x3d62b7c7	0.055351045
23	0x3d324621	0.04352391
24	0x3dbad15c	0.091219634
25	0x3d2ec67d	0.042669762
26	0x3da3e05a	0.08001776
27	0x3d871aad	0.06596885
28	0x3c70121b	0.014652754
29	0x3d28b933	0.041192245
30	0x3d7d6d2e	0.0618717
31	0x3cd960b0	0.026535362

genenet_fcs.5.running_mean f4 [32]
0	0xbd8885ae	-0.066661224
1	0xbcd31138	-0.025765046
2	0xbdb7ecc6	-0.08980708
3	0x3cb6b5e4	0.02230353
4	0x3d015d36	0.031583034
5	0x3ce0797c	0.027401678
6	0xbc8b2446	-0.01698507
7	0xbd9e12c7	-0.07718425
8	0xbdb12c2b	-0.086510025
9	0xbdf49a46	-0.11943488
10	0xbbf4fe9f	-0.0074766423
11	0xbd1f21bf	-0.038850542
12	0xbb27e93e	-0.00256212
13	0xbcc87843	-0.024471408
14	0xbe2f0f57	-0.17095695
15	0x3d35ea60	0.04441297
16	0xbd878e9c	-0.066189975
17	0x3c548b22	0.012972625
18	0x3cb46f4a	0.022025723
19	0x3c5db6a4	0.013532314
20	0xbdc258b3	-0.09489574
21	0x3cc6385b	0.024196794
22	0x3e00201e	0.12512252
23	0xbdbcd208	-0.09219748
24	0xbcb19acd	-0.02168026
25	0xbd6f9f31	-0.058501426
26	0x3d872a10	0.0659982
27	0xbdadf310	-0.08493626
28	0x3d16933b	0.036761504
29	0xbd3951eb	-0.04524414
30	0x3c60909c	0.013706353
31	0xbdc4edc4	-0.09615663

genenet_fcs.5.running_var f4 [32]
0	0x3d67fb39	0.05663607
1	0x3d8f05d3	0.06983533
2	0x3d77942c	0.060444042
3	0x3d22dcdb	0.039761405
4	0x3d8f8ff2	0.07009877
5	0x3d3d0f86	0.046157382
6	0x3d67b755	0.056571323
7	0x3d3b8693	0.045782637
8	0x3d8fd03f	0.07022142
9	0x3d7593ea	0.059955515
10	0x3cbf62ff	0.023362635
11	0x3d6d35cb	0.05791263
12	0x3d467a94	0.048456743
13	0x3d2c242c	0.042026684
14	0x3d8fb643	0.070171855
15	0x3d51ec8a	0.05125097
16	0x3d9374d1	0.07200015
17	0x3d97cc6d	0.07412038
18	0x3d34b28b	0.044115584
19	0x3d6f7871	0.05846447
20	0x3d993f38	0.07482761
21	0x3d20e6d3	0.03928263
22	0x3d55735c	0.05211197
23	0x3d58201b	0.052764993
24	0x3d8a2f0e	0.06747256
25	0x3d8012f5	0.06253616
26	0x3d971312	0.07376684
27	0x3d77ae12	0.06046874
28	0x3d2213b3	0.039569568
29	0x3d2d139a	0.04225502
30	0x3d660ef8	0.05616662
31	0x3d131bf4	0.03591533

genenet_fcs.8.weight f4 [10, 32]
0	0x3c2fef87	0.01073826
1	0x3e0b4019	0.1359867
2	0xbd90ceec	-0.07070717
3	0xbcc562d7	-0.024094982
4	0x3e0b3e98	0.13598096
5	0xbcc5d515	-0.024149457
6	0xbccaccb3	-0.024755811
7	0x3df52127	0.11969214
8	0xbd912947	-0.07087951
9	0xbccf9c1d	-0.025342995
10	0xbda4cb9e	-0.080466494
11	0xbccf70ec	-0.0253224
12	0xbcf29c0e	-0.029615428
13	0xbddc2f19	-0.10751171
14	0x3b7943a5	0.0038034704
15	0xbc954140	-0.01821959
16	0xbd889ea7	-0.066708855
17	0x3e01f706	0.12691888
18	0xba35c3b9	-0.0006933767
19	0x3d53b905	0.05169012
20	0x3d3a986f	0.04555553
21	0xbcc6446b	-0.024202546
22	0xbb39e457	-0.002836486
23	0xbc83d5d9	-0.016093181
24	0xbd294ac2	-0.04133106
25	0x3c22082a	0.009889642
26	0x3dc66a54	0.09688249
27	0x3d9e0f9b	0.0771782
28	0x3dab11fc	0.083530396
29	0xbda8f84f	-0.08250486
30	0x3d9c860d	0.07642756
31	0xbb52d4d2	-0.0032170308
32	0x3daadeed	0.08343301
33	0x3d6c0b95	0.057628233
34	0xbde98591	-0.11402429
35	0x3ca2f8f3	0.019894099
36	0x3cefbfed	0.029266322
37	0x3d7f4504	0.062321678
38	0xbce522c7	-0.027970685
39	0x3daecb40	0.085348606
40	0xbddd0063	-0.107910894
41	0xbcd0d8a0	-0.02549392
42	0xbcc213f8	-0.023691162
43	0x3ccb5d33	0.024824714
44	0x3db23cbc	0.087029904
45	0x3cdf8181	0.027283432
46	0xbd854202	-0.065067306
47	0x3d080ead	0.03321712
48	0x3c74f488	0.014950879
49	0x3dce9b46	0.1008821
50	0x3d63efa6	0.05564847
51	0x3d180dc5	0.037122507
52	0xbd574437	-0.05255529
53	0x3c56556c	0.01308189
54	0x3dd5988a	0.10429485
55	0x3d2fcd50	0.04292041
56	0x3e063c36	0.13108906
57	0xbdb6f8ce	-0.089341745
58	0x3d23eeee	0.040022783
59	0xbce8ec89	-0.028433101
60	0x3d109e48	0.0353072
61	0xbd34ff3d	-0.044188727
62	0x3c1a4f68	0.009418346
63	0xbdbdb008	-0.09262091
64	0x3cc337c3	0.0238303
65	0xbdaa37a9	-0.083113976
66	0x3d91f039	0.07125897
67	0x3d08f922	0.033440717
68	0xbd985e77	-0.07439893
69	0xbd1fea47	-0.039041784
70	0x3c3d87db	0.011568035
71	0x3d6352af	0.055498775
72	0xbd30e67c	-0.043188557
73	0x3db584e6	0.08863239
74	0xbd9d2116	-0.07672326
75	0xbdc41e31	-0.09576071
76	0x3d2f7d13	0.04284389
77	0xbd2c1139	-0.042008612
78	0x3cbb3176	0.022850733
79	0xbd5b935a	-0.053607322
80	0x3dc3ac45	0.09554342
81	0xbdc43aca	-0.095815256
82	0x3d37672a	0.04477612
83	0x3caf5d49	0.021406787
84	0x3d63a270	0.055574834
85	0x3d96dbf3	0.07366171
86	0xbd5d5f3f	-0.054045912
87	0x3db4e51e	0.08832763
88	0x3d9086b3	0.07056942
89	0x3dc47e7f	0.0959444
90	0xbd6a8287	-0.057253387
91	0xbcf25e3a	-0.029585946
92	0xbcfe11da	-0.031014372
93	0x3dda9030	0.10672033
94	0xbd681773	-0.056662988
95	0x3d346ae0	0.044047236
96	0x3e03c482	0.1286793
97	0x3e14e66c	0.14541024
98	0xbdc0f49b	-0.09421655
99	0x3e2a7ed7	0.16649948
100	0x3e38aceb	0.18034713
101	0x3e3b675c	0.18301147
102	0x3e0dfa69	0.13865055
103	0x3e31675a	0.17324582
104	0xbe10faa0	-0.14158106
105	0xbe2f1062	-0.17096093
106	0xbdd1b3ad	-0.102393486
107	0x3e4de042	0.20105079
108	0x3d856514	0.0651342
109	0xbd1826be	-0.037146322
110	0xbe44cd3f	-0.1921892
111	0x3e0bd6b9	0.13656129
112	0xbe3a6315	-0.1820186
113	0x3e6d6eaa	0.23186746
114	0x3e0c3073	0.13690357
115	0x3d8b7e7d	0.06811235
116	0xbe0f33e1	-0.13984634
117	0x3e0c97a7	0.13729726
118	0x3e17a316	0.14808306
119	0xbe2356ba	-0.15951052
120	0x3e2da86f	0.16958784
121	0xbdac94c9	-0.08426816
122	0x3e612b99	0.21989287
123	0x3e2d5396	0.16926417
124	0x3e27d83c	0.1639108
125	0xbe39f099	-0.18158187
126	0x3e0f40b1	0.13989522
127	0xbe26cb09	-0.1628839
128	0xbc5d091c	-0.013490941
129	0xbdb65ab6	-0.089040205
130	0x3b25f604	0.0025323639
131	0xbd6ca3ab	-0.057773273
132	0x3bfced88	0.0077187456
133	0xbdc3fdbc	-0.0956988
134	0x3d2ac0f1	0.04168791
135	0xbd490736	-0.049079143
136	0x3cdad14a	0.026711125
137	0x3c97acf3	0.018515086
138	0x3d8a0b74	0.06740466
139	0xbbc30e64	-0.005952643
140	0xbb905eb5	-0.004405821
141	0xbd3a8e3e	-0.04554581
142	0x3d600565	0.054692645
143	0xbdc47c50	-0.09594023
144	0x3d2fbe8a	0.04290632
145	0x3c708579	0.01468026
146	0xbab26afb	-0.0013612205
147	0xbdbffa85	-0.09373955
148	0x3d03a47c	0.032139286
149	0x3c8da61f	0.017291127
150	0x3d88a9f9	0.06673045
151	0xbb214f13	-0.0024613782
152	0xbdeade72	-0.11468209
153	0xbd2b78f6	-0.041863404
154	0xbd35a00e	-0.044342093
155	0xbd41e360	-0.047335982
156	0x3d7bdfc1	0.061492685
157	0xbc8c1a93	-0.017102515
158	0xbd91d04e	-0.07119809
159	0x3dbdab2d	0.09261165
160	0xbdb22f43	-0.08700421
161	0xbd3934a8	-0.045216233
162	0x3d8b18dc	0.06791851
163	0xbd0956f7	-0.0335302
164	0xbdabed36	-0.08394854
165	0x3d05ee31	0.03269786
166	0xbdce3ac1	-0.100698
167	0xbd9e5c37	-0.07732432
168	0x3dc8495a	0.09779616
169	0x3da16aef	0.07881724
170	0x3c292c46	0.010325497
171	0xbd7d4cc8	-0.061840802
172	0xbe07cb19	-0.1326107
173	0x3df56fc3	0.119842075
174	0x3e0ab7e3	0.1354671
175	0xbd137244	-0.035997644
176	0x3e04ae59	0.12957133
177	0xbe067c2f	-0.1313331
178	0xbbd68084	-0.006546082
179	0xbd9126cd	-0.07087479
180	0x3e02f383	0.12788205
181	0xbd9c10c5	-0.07620386
182	0xbda0b3aa	-0.07846768
183	0x3d83dbfc	0.06438443
184	0xbd4fadda	-0.050702907
185	0x3dd75d59	0.105158515
186	0xbdb15d12	-0.0866033
187	0xbd296f35	-0.04136582
188	0x3d47fa9c	0.048822984
189	0x3d10edee	0.035383157
190	0x3ab5643a	0.0013839074
191	0xbcb2b703	-0.021815782
192	0xbdec5e04	-0.115413696
193	0xbbadc03d	-0.0053024576
194	0x3d76f188	0.060288936
195	0xbdbb071e	-0.09132217
196	0xbd396af4	-0.045268014
197	0xbd8d9c6d	-0.069146015
198	0x3d86e069	0.065857716
199	0xbd9b550b	-0.0758458
200	0xbd01ed38	-0.03172037
201	0x3deb7b8c	0.11498174
202	0xbcedda23	-0.02903468
203	0xbbdff7c5	-0.0068349564
204	0xbd8fe167	-0.07025414
205	0x3c5e23e5	0.013558363
206	0x3d5f7513	0.05455501
207	0xbd81878a	-0.0632468
208	0x3dc605e2	0.09669091
209	0x3d77af82	0.06047011
210	0xb9dc8a78	-0.00042064837
211	0xbd112ba7	-0.03544202
212	0x3da871ac	0.08224806
213	0xbd59e525	-0.053197045
214	0xbcdfa2e7	-0.027299358
215	0x3c810ea4	0.015754052
216	0xbca52396	-0.02015857
217	0xbb8e68e7	-0.0043460014
218	0x3d4c897b	0.0499358
219	0xbd4ebfbd	-0.050475825
220	0x3ca35f6b	0.01994296
221	0x3cb9dbb4	0.02268777
222	0x3d89978b	0.06718358
223	0xbd6c1b61	-0.057643298
224	0x3db4f291	0.08835328
225	0x3db56f85	0.08859161
226	0xbe4411ed	-0.19147463
227	0x3dc5c9b1	0.0965761
228	0x3d8d557d	0.06901071
229	0x3dbee680	0.09321308
230	0x3e2658b7	0.1624478
231	0x3e21a21c	0.15784496
232	0xbde332ac	-0.11093649
233	0xbd8eb1b6	-0.069674894
234	0x3d77fe11	0.06054503
235	0x3d84b920	0.06480622
236	0x3dc69d56	0.09697978
237	0xbe036789	-0.12832464
238	0xbd83343b	-0.064064465
239	0x3e035822	0.12826589
240	0xbe3b50a2	-0.18292478
241	0x3d8ccfb5	0.068755545
242	0x3d923467	0.07138901
243	0x3e0c25f3	0.13686351
244	0xbe0348f1	-0.12820794
245	0x3e072503	0.13197713
246	0x3d309999	0.043115232
247	0xbe2328f7	-0.15933596
248	0x3e09b160	0.1344657
249	0xbe1d2b5e	-0.15348575
250	0x3dac55c1	0.08414794
251	0xbcadcbd3	-0.021215355
252	0xbd0785b0	-0.03308648
253	0x3bb252a1	0.005441979
254	0x3df6cc36	0.12050669
255	0x3c9c3a8e	0.01907089

genenet_fcs.8.bias f4 [10]
0	0xbd75c904	-0.060006157
1	0xbda54f4e	-0.08071767
2	0xbd90892a	-0.07057412
3	0xbd1a83a9	-0.037723217
4	0x3d91a689	0.07111842
5	0x3da9ba35	0.08287469
6	0x3d29f0cc	0.041489407
7	0xbca0b8f3	-0.01961944
8	0x3cab2376	0.020890933
9	0xbd2e8414	-0.04260643

genenet_fcs.9.weight f4 [2, 10]
0	0x3e64516f	0.2229669
1	0x3e41b2d4	0.18915874
2	0xbe0d0ea6	-0.13775119
3	0x3f1528d5	0.5826543
4	0xbdfce87a	-0.12349029
5	0xbe9f10a2	-0.31067377
6	0xbe401d56	-0.18761191
7	0x3ecbdf09	0.398186
8	0xbf29c956	-0.6632284
9	0x3d9ec15f	0.07751726
10	0xbdb813a2	-0.0898812
11	0xbe3dcb7f	-0.18534659
12	0x3d6e3ee3	0.058165442
13	0xbf125650	-0.5716295
14	0x3dba5c82	0.09099676
15	0x3e512d1a	0.20427361
16	0x3ce99b18	0.028516337
17	0xbec17110	-0.37781572
18	0x3f264650	0.6495104
19	0xbe9355be	-0.28776354

genenet_fcs.9.bias f4 [2]
0	0xbe73a9b8	-0.23795211
1	0x3e09bf1e	0.13451812

momentum_buffer f4 [64, 96]
0	0xbd0a9f2e	-0.03384321
1	0xbd97aa9a	-0.074055865
2	0x3c9653b2	0.018350456
3	0x3e728ac8	0.23685753
4	0xbd8ddd6a	-0.06926997
5	0x3baa5a1c	0.00519873
6	0xbcfafac6	-0.030637156
7	0xbbd9d7dd	-0.0066480474
8	0xbd87de69	-0.06634218
9	0x3eb055ec	0.34440553
10	0x3cbaa358	0.022782966
11	0xbd78f7c6	-0.06078317
12	0x3d15e248	0.03659275
13	0xbb9a82ab	-0.004715284
14	0xbd98e1ba	-0.07464929
15	0xbd92bdc0	-0.07165098
16	0x3aed7820	0.0018117465
17	0x3ced63f4	0.028978325
18	0xbd81b23f	-0.06332826
19	0x3eb03bea	0.3442071
20	0x3cb098fa	0.02155732
21	0xbcfc763e	-0.030818101
22	0xbd81e46a	-0.06342395
23	0xba83de8b	-0.001006083
24	0x3d063d4e	0.03277331
25	0xbba15fd3	-0.004924753
26	0xbd97754a	-0.07395418
27	0xbd8e2a6b	-0.06941684
28	0x3bc8f0a1	0.006132201
29	0x3ce1f8bb	0.027584424
30	0xbde47d7c	-0.11156747
31	0xbc182190	-0.009285346
32	0xbce71b63	-0.028211301
33	0xbc36ebcd	-0.011164618
34	0xbd15e7f3	-0.036598157
35	0xbd8184ca	-0.06324156
36	0xbb731dbc	-0.003709658
37	0x3d163abf	0.03667712
38	0x3d84e18b	0.064883314
39	0xbd2bb77e	-0.04192304
40	0xbe2a22b1	-0.16614796
41	0x3cb36190	0.021897107
42	0xbdd264c2	-0.10273124
43	0xbd33be27	-0.043882515
44	0xbd38c9b4	-0.045114234
45	0x3eb509fa	0.35359174
46	0xbbf4018f	-0.007446475
47	0xbd864f66	-0.06558113
48	0xb92e1400	-0.00016601384
49	0x3d77f24c	0.060533807
50	0x3d01b0ce	0.031662755
51	0xbd8e3d59	-0.06945295
52	0xbdc35910	-0.09538472
53	0xbd8c5d3b	-0.0685372
54	0xbbccb0e0	-0.006246671
55	0xbc64d620	-0.013967067
56	0x3c642810	0.013925567
57	0xbcad33e2	-0.021142904
58	0x3c194401	0.009354592
59	0x3dfe1f22	0.12408282
60	0x3d2e7b21	0.042597894
61	0x3d1e9ad3	0.03872187
62	0xbd425661	-0.04744566
63	0xbd057b88	-0.03258851
64	0xbd3c1606	-0.04591944
65	0x3d8eb104	0.06967357
66	0xbcff32c5	-0.031152138
67	0xbd051d50	-0.032498658
68	0x3cff3167	0.031151487
69	0xbc16c178	-0.0092014
70	0xbc65e245	-0.014030998
71	0x3dcd84bd	0.100350834
72	0x3d084405	0.033267993
73	0x3c9c432e	0.019075003
74	0x3e3dba4c	0.18528098
75	0x3c3d0478	0.01153671
76	0x3de29bdc	0.11064884
77	0xbd92a0cc	-0.07159576
78	0x39a25580	0.0003096275
79	0x3f14ffe2	0.58202946
80	0xbd0fdb8c	-0.035121486
81	0xbc84de1c	-0.016219191
82	0x3d910f10	0.07082951
83	0xbc873e6c	-0.016509257
84	0xbdc75f81	-0.09735013
85	0xbd379d26	-0.044827603
86	0x3bdcf3d3	0.0067429333
87	0x3a53e6b0	0.00080833863
88	0x3d68f047	0.05686977
89	0xbccc1148	-0.024910584
90	0x3ba8c0ac	0.0051499214
91	0x3caf4654	0.02139584
92	0x3d18b358	0.03728041
93	0x3e33773e	0.17525956
94	0xbe782c1d	-0.24235578
95	0xbdac24d0	-0.08405459
96	0x3da30eba	0.07961793
97	0xbe2369d2	-0.15958336
98	0x3e1041e1	0.14087631
99	0x3dba48a1	0.09095884
100	0xbdf60e2e	-0.12014423
101	0x3d19f436	0.037586413
102	0x3da49a55	0.08037249
103	0x3c32f153	0.010921794
104	0xbe0ba1ae	-0.13635895
105	0x3e155106	0.14581689
106	0x3e0677f4	0.13131696
107	0x3d7d67c2	0.06186653
108	0x3d46e6fa	0.04856012
109	0x3cdee3f4	0.027208306
110	0x3e05cd84	0.13066679
111	0xbe05a40a	-0.13050857
112	0x3cfab6db	0.03060477
113	0xbd3ec7b9	-0.04657719
114	0xbe0f2be8	-0.13981593
115	0x3e1d2674	0.153467
116	0x3e05a868	0.13052523
117	0x3d9f2570	0.077708125
118	0x3d71f0c1	0.05906749
119	0x3cf710b3	0.03015933
120	0x3d37741a	0.044788457
121	0x3cad41bf	0.021149514
122	0x3e02d0d8	0.1277498
123	0xbe018b0a	-0.12650695
124	0x3d1af021	0.03782666
125	0xbd4ef434	-0.05052586
126	0x3e6c3e04	0.23070532
127	0xbe9af082	-0.30261618
128	0x3d1358e5	0.03597345
129	0xbca88d44	-0.020575173
130	0x3d9ad9fb	0.07561108
131	0x3d62b372	0.055346914
132	0x3ce898e5	0.028393218
133	0x3d34f15d	0.044175494
134	0x3d5ec09a	0.054382898
135	0xbdc61cfb	-0.09673496
136	0x3d97b696	0.074078724
137	0x3df56044	0.11981252
138	0x3e7556b2	0.23958853
139	0x3e0e1461	0.13874961
140	0x3d2bda85	0.041956443
141	0x3e25460b	0.1614
142	0xbceaaa94	-0.028645791
143	0xbe0209ef	-0.12699102
144	0x3d04a9aa	0.032388367
145	0x3dd3a280	0.10333729
146	0xbd32e046	-0.043670915
147	0xbe0491de	-0.12946269
148	0x3e797114	0.24359542
149	0x3e5a2be9	0.21305813
150	0xbd758fcf	-0.0599516
151	0xbe9b957c	-0.30387485
152	0x3d2bb776	0.04192301
153	0x3ce58c66	0.028021049
154	0x3dc3b32c	0.09555659
155	0xbd133b5f	-0.035945293
156	0x3e53766d	0.20650645
157	0x3def5dd2	0.11687817
158	0xbdd68b75	-0.10475818
159	0xbdf47325	-0.119360246
160	0x3de6f5bd	0.112773396
161	0x3e876986	0.26447695
162	0x3d19a143	0.037507307
163	0x3d68134b	0.056659024
164	0x3c734bc2	0.014849605
165	0x3d76171a	0.060080625
166	0x3d943d18	0.07238215
167	0x3c066960	0.008203834
168	0xbd3564fd	-0.044285763
169	0x3d81cea2	0.0633824
170	0xbe3ca507	-0.18422328
171	0x3cee8090	0.029114038
172	0xbe91cd08	-0.2847674
173	0x3ebfcd80	0.37461472
174	0x3cef7cba	0.029234279
175	0xbbb6ddac	-0.0055806246
176	0xbd3dab9c	-0.046306238
177	0x3e2ddbf1	0.16978432
178	0x3e1032ca	0.14081874
179	0xbe3726f8	-0.17885959
180	0x3dc731b0	0.09726274
181	0x3cdd734f	0.027032522
182	0xbc8229a7	-0.015889002
183	0x3d04f034	0.032455638
184	0x3dd4cd34	0.10390702
185	0xbc8be84c	-0.017078541
186	0x3d82608e	0.063660726
187	0x3e140533	0.14455108
188	0xbd4768af	-0.04868382
189	0x3d86b271	0.06577004
190	0x3da0eff7	0.0785827
191	0x3d9e2e6e	0.077236995
192	0x3de3d501	0.11124612
193	0xbe1d96e2	-0.15389588
194	0x3e28a511	0.16469218
195	0x3e1313f8	0.14363086
196	0xbe89213b	-0.26783165
197	0xbdda9ad5	-0.10674063
198	0x3dee96ea	0.11649878
199	0xbdafe807	-0.085891776
200	0xbe18ee38	-0.14934623
201	0x3e6ebfcb	0.2331535
202	0x3e59ddec	0.21276063
203	0xbd3efff0	-0.0466308
204	0xbe2db7f9	-0.16964711
205	0xbcf0f04e	-0.029411461
206	0xbd35179c	-0.04421197
207	0xbe8514ca	-0.25992423
208	0xbdda4fa5	-0.10659722
209	0xbde78a15	-0.11305634
210	0xbe10afc4	-0.1412955
211	0x3e6cb77f	0.23116873
212	0x3e5fc80e	0.21853659
213	0x3deafb3a	0.11473699
214	0xbd3681d8	-0.044557422
215	0xbcb6cab2	-0.02231345
216	0xbe2c1567	-0.1680504
217	0xbe7fcbf0	-0.2498014
218	0xbd2a6e26	-0.041608952
219	0xbe82cf5b	-0.25548825
220	0xbdea4c79	-0.11440367
221	0xbdebecb9	-0.11519761
222	0xbe4584a2	-0.19288877
223	0xbc24c498	-0.010056637
224	0xbe212919	-0.15738334
225	0x3e861d43	0.261942
226	0x3df6939f	0.12039875
227	0xbd364bb0	-0.044505775
228	0xbcccad02	-0.02498484
229	0xbe2a24ec	-0.16615647
230	0x3e219714	0.15780288
231	0xbe241b4e	-0.16026041
232	0x3e92c216	0.286637
233	0xbe5f2a14	-0.21793395
234	0xbe0dcaa0	-0.13846827
235	0x3e7947cb	0.24343793
236	0xbecad7d8	-0.396178
237	0x3e5eb010	0.2174685
238	0x3df7c67c	0.12098405
239	0xbe83dc99	-0.2575424
240	0xbde65abe	-0.112477764
241	0xbd0280e6	-0.03186121
242	0xbdf25b67	-0.1183384
243	0xbe864d69	-0.26230934
244	0xbe068ae7	-0.13138925
245	0xbd372532	-0.044713207
246	0x3eb4d990	0.35322237
247	0xbc81fb43	-0.015866881
248	0xbdc36a31	-0.09541739
249	0xbde6b9cf	-0.11265909
250	0x3def98b2	0.11699046
251	0xbdbed299	-0.09317512
252	0x3e2139a9	0.15744652
253	0xbe8b7a28	-0.27241635
254	0xbe23a80a	-0.1598207
255	0x3b4b2f58	0.003100356

momentum_buffer f4 [64]
0	0xbb8654d6	-0.0040994687
1	0x390eb5fb	0.00013609968
2	0x39e2911d	0.00043214197
3	0xbb0436c1	-0.0020174237
4	0xbb6a9c01	-0.0035798552
5	0xbaf9be0e	-0.0019053833
6	0x3b4e9e46	0.0031527444
7	0x39ba0371	0.0003547925
8	0x3a7e4510	0.0009699622
9	0x3ad35a08	0.0016124854
10	0xbb6147b7	-0.003437502
11	0x39935677	0.00028102446
12	0xbb72bc5e	-0.0037038545
13	0xba73315a	-0.00092770683
14	0x3b98dbc3	0.0046648695
15	0x3b47a2be	0.0030461992
16	0x3b8d80a1	0.0043183123
17	0x3b8f1e45	0.004367622
18	0xbb7fbb2f	-0.0039021482
19	0xbad2017b	-0.001602217
20	0xbb81cc33	-0.00396111
21	0xbaa564d3	-0.0012618549
22	0xbb4ad6e1	-0.0030950832
23	0xbb9dceea	-0.004815926
24	0xba8e831e	-0.0010872816
25	0x3b48948d	0.0030606121
26	0x3ba1555b	0.0049235052
27	0xbb8d1140	-0.004305035
28	0x3af3954b	0.0018583921
29	0x3b48b47f	0.0030625162
30	0x3b079631	0.0020688886
31	0xbb21333e	-0.0024597193
32	0xbba26ab5	-0.004956568
33	0xbb6595fd	-0.0035032027
34	0xbb88f128	-0.0041791387
35	0xba00a881	-0.00049079215
36	0xbb638528	-0.0034716818
37	0xba6b65e2	-0.00089797203
38	0x3b61033d	0.0034334206
39	0x3b97925b	0.004625601
40	0x3b4609bd	0.0030218207
41	0x3b37daaa	0.0028053918
42	0x3b52f888	0.0032191593
43	0x3b6a9b18	0.003579801
44	0xbb10d240	-0.0022097975
45	0xbb7c8662	-0.0038532247
46	0xbb8a7595	-0.0042254427
47	0xbb7d6fd2	-0.0038671386
48	0x3879581f	5.9448295e-05
49	0x3b27dd1e	0.0025613974
50	0xbb86c0e4	-0.00411235
51	0x3afc8383	0.0019265268
52	0xbaff5c84	-0.0019482528
53	0xbb757ed7	-0.0037459636
54	0xbb52dc76	-0.0032174862
55	0x3b9ff6eb	0.00488173
56	0xbb6070b9	-0.0034246875
57	0xbaee253e	-0.0018169058
58	0x39d37cd3	0.00040338057
59	0x3b7f6bdf	0.0038974208
60	0xbb548694	-0.0032428848
61	0x3b08ee0e	0.0020893845
62	0xbb7c81ca	-0.0038529509
63	0x3b07301c	0.002062804

momentum_buffer f4 [64]
0	0x3dda97c1	0.10673476
1	0x3db1380b	0.086532675
2	0x3d0f8992	0.035043307
3	0xbd2cc6c6	-0.042181753
4	0x3d789312	0.060687132
5	0xb9d2c700	-0.00040202588
6	0x3deebd5e	0.11657213
7	0x3e46e28e	0.19422361
8	0x3b4b749a	0.0031044842
9	0x3df9da0d	0.12199793
10	0x3e3ca3a0	0.18421793
11	0x3d299e72	0.04141087
12	0x3db64b60	0.089010954
13	0xbe4cd297	-0.20002209
14	0x3dc318c6	0.095262095
15	0x3d948fd0	0.072539926
16	0x3d91ffe0	0.071288824
17	0xbd15a884	-0.036537662
18	0x3d9667cf	0.07344019
19	0x3d8316a6	0.06400804
20	0x3d309032	0.043106265
21	0x3d506dc6	0.050885938
22	0x3b45646c	0.003011967
23	0x3db7c50f	0.08973133
24	0x3dcfe7e5	0.10151652
25	0x3a89a758	0.0010502143
26	0x3d95f9cc	0.073230356
27	0x3a712388	0.0009198715
28	0x3b572b00	0.0032832026
29	0x3d351ee8	0.044218928
30	0x3de9f18a	0.11423023
31	0xbd32971c	-0.04360114
32	0xba6c0ee8	-0.0009004907
33	0x3e259852	0.16171387
34	0x3e3a42be	0.18189523
35	0x3cc0c44e	0.023531105
36	0x3e3ba3c8	0.18324196
37	0x3dda37a9	0.106551476
38	0x3d8cfeec	0.0688456
39	0x3de41d96	0.111384556
40	0x3d3a9d84	0.045560375
41	0xbdea0813	-0.11427321
42	0x3d414ef1	0.047194425
43	0x3e062728	0.13100874
44	0x3b9d5c94	0.004802296
45	0x3dc6ab58	0.0970065
46	0x3d54f13a	0.051987864
47	0x3dc0bfc3	0.09411576
48	0x3da3f243	0.08005192
49	0x3dc1c105	0.09460644
50	0x3dab57a3	0.08366325
51	0xbd1a2ed8	-0.03764233
52	0x3d90ea00	0.07075882
53	0x3c5eb4a0	0.013592869
54	0xbd866102	-0.065614715
55	0x3cdcda46	0.02695955
56	0x3dfb4095	0.122681774
57	0x3dbfebad	0.093711235
58	0x3dd4eee0	0.10397124
59	0x3c607498	0.013699673
60	0x3e0ad227	0.1355673
61	0x3d62f6e2	0.055411227
62	0x3ddb538d	0.107092954
63	0xbb4d2100	-0.0031300187

momentum_buffer f4 [64]
0	0x3d8d8d89	0.06911761
1	0xbd115b7c	-0.035487637
2	0x3d45360e	0.048147254
3	0xbe15e3b5	-0.14637645
4	0x3bac5d90	0.005260177
5	0xbccd328c	-0.025048517
6	0x3dad637a	0.08466239
7	0x3df8b639	0.12144131
8	0xbd04d895	-0.03243311
9	0x3d9ce6d3	0.07661214
10	0x3e365939	0.17807473
11	0xbc186dea	-0.009303549
12	0xbd68638f	-0.05673557
13	0xbe8180c2	-0.25293547
14	0x3d6cec91	0.057842795
15	0x3d23c1f6	0.039979897
16	0x3d778f5c	0.060439453
17	0xbdb4cb30	-0.088278174
18	0x3d1c2c8e	0.03812843
19	0xbd156f26	-0.036482953
20	0x3b9c2d28	0.004766125
21	0xbc8a13ec	-0.016855203
22	0xbdc56eb7	-0.09640258
23	0x3d2f0592	0.04272992
24	0x3cb85944	0.022503503
25	0xbc8ca2fc	-0.01716756
26	0xbc567498	-0.013089322
27	0xbd172e89	-0.036909614
28	0x3d94f8ac	0.07273993
29	0x3d474b44	0.048655763
30	0x3de6f67d	0.11277483
31	0xbd8649c4	-0.065570384
32	0xbd42f040	-0.0475924
33	0x3e395e2e	0.18102333
34	0x3e1c3df6	0.15258011
35	0x3cb4c19e	0.02206498
36	0x3cd8dc6c	0.026472293
37	0x3d9329c3	0.071857
38	0x3bae6f23	0.005323307
39	0x3deb3d19	0.11486263
40	0x3c6091b8	0.013706617
41	0xbdf06d0c	-0.11739549
42	0xbc1cd31b	-0.009571816
43	0x3dda387c	0.10655305
44	0xbcb03556	-0.021509808
45	0x3deb44e2	0.11487748
46	0x3d93ae57	0.07210987
47	0x3d8b7db2	0.06811084
48	0x3cd28b96	0.025701325
49	0x3d9f9e09	0.07793815
50	0xbc0e37a8	-0.008680262
51	0x3cc9785c	0.024593525
52	0x3d19569e	0.03743612
53	0x3b5c6fa0	0.003363587
54	0xbdf62c96	-0.12020223
55	0xbd5b9ac0	-0.053614378
56	0x3e100d27	0.14067517
57	0x3d81cd46	0.06337981
58	0x3d01a4ba	0.031651236
59	0x3cd5c9e2	0.026097242
60	0x3dcf04d3	0.10108342
61	0xbcf3a1c2	-0.029740218
62	0x3e5cfec4	0.2158156
63	0xbd91413d	-0.07092521
